[
  {
    "file-line": 11,
    "subnet_id": 0,
    "opcode": "tpu.Slice",
    "tiu_dma_id(before)": [
      0,
      0
    ],
    "tiu_dma_id(after)": [
      0,
      1
    ],
    "operands": [
      {
        "address": 4300984320,
        "layout": "continuous",
        "memory_type": "<256x5xf32>",
        "name": "input",
        "reshape": "",
        "slice": "[...]",
        "type": "tensor<256x5xf32, 4300984320 : i64>"
      },
      {},
      {},
      {},
      {}
    ],
    "results": [
      {
        "address": 4300992512,
        "layout": "continuous",
        "memory_type": "<256x1xf32>",
        "name": "/embedding_layer/Gather_output_0_Slice",
        "reshape": "",
        "slice": "[...]",
        "type": "tensor<256x1xf32, 4300992512 : i64>"
      }
    ]
  },
  {
    "file-line": 12,
    "subnet_id": 0,
    "opcode": "tpu.Reshape",
    "tiu_dma_id(before)": [
      0,
      1
    ],
    "tiu_dma_id(after)": [
      0,
      1
    ],
    "operands": [
      {
        "address": 4300992512,
        "layout": "continuous",
        "memory_type": "<256x1xf32>",
        "name": "/embedding_layer/Gather_output_0_Slice",
        "reshape": "",
        "slice": "[...]",
        "type": "tensor<256x1xf32, 4300992512 : i64>"
      }
    ],
    "results": [
      {
        "address": 4300992512,
        "layout": "continuous",
        "memory_type": "<256xf32>",
        "name": "/embedding_layer/Gather_output_0_Gather",
        "reshape": "",
        "slice": "[...]",
        "type": "tensor<256xf32, 4300992512 : i64>"
      }
    ]
  },
  {
    "file-line": 13,
    "subnet_id": 0,
    "opcode": "tpu.Cast",
    "tiu_dma_id(before)": [
      0,
      1
    ],
    "tiu_dma_id(after)": [
      1,
      3
    ],
    "operands": [
      {
        "address": 4300992512,
        "layout": "continuous",
        "memory_type": "<256xf32>",
        "name": "/embedding_layer/Gather_output_0_Gather",
        "reshape": "",
        "slice": "[...]",
        "type": "tensor<256xf32, 4300992512 : i64>"
      }
    ],
    "results": [
      {
        "address": 4301058048,
        "layout": "continuous",
        "memory_type": "<256xsi32>",
        "name": "/embedding_layer/Gather_output_0_Gather_si32",
        "reshape": "",
        "slice": "[...]",
        "type": "tensor<256xi32, 4301058048 : i64>"
      }
    ]
  },
  {
    "file-line": 15,
    "subnet_id": 0,
    "opcode": "tpu.Gather",
    "tiu_dma_id(before)": [
      1,
      3
    ],
    "tiu_dma_id(after)": [
      3,
      5
    ],
    "operands": [
      {
        "address": 4294967296,
        "layout": "continuous",
        "memory_type": "<6032x64xf32>",
        "name": "embedding_layer.embedding_layer.uid.weight",
        "reshape": "",
        "slice": "[...]",
        "type": "tensor<6032x64xf32, 4294967296 : i64>"
      },
      {
        "address": 4301058048,
        "layout": "continuous",
        "memory_type": "<256xsi32>",
        "name": "/embedding_layer/Gather_output_0_Gather_si32",
        "reshape": "",
        "slice": "[...]",
        "type": "tensor<256xi32, 4301058048 : i64>"
      },
      {}
    ],
    "results": [
      {
        "address": 4300992512,
        "layout": "continuous",
        "memory_type": "<256x64xf32>",
        "name": "/embedding_layer/uid/Gather_output_0_Gather",
        "reshape": "",
        "slice": "[...]",
        "type": "tensor<256x64xf32, 4300992512 : i64>"
      }
    ]
  },
  {
    "file-line": 16,
    "subnet_id": 0,
    "opcode": "tpu.Slice",
    "tiu_dma_id(before)": [
      3,
      5
    ],
    "tiu_dma_id(after)": [
      3,
      6
    ],
    "operands": [
      {
        "address": 4300984320,
        "layout": "continuous",
        "memory_type": "<256x5xf32>",
        "name": "input",
        "reshape": "",
        "slice": "[...]",
        "type": "tensor<256x5xf32, 4300984320 : i64>"
      },
      {},
      {},
      {},
      {}
    ],
    "results": [
      {
        "address": 4301058048,
        "layout": "continuous",
        "memory_type": "<256x1xf32>",
        "name": "/embedding_layer/Gather_1_output_0_Slice",
        "reshape": "",
        "slice": "[...]",
        "type": "tensor<256x1xf32, 4301058048 : i64>"
      }
    ]
  },
  {
    "file-line": 17,
    "subnet_id": 0,
    "opcode": "tpu.Reshape",
    "tiu_dma_id(before)": [
      3,
      6
    ],
    "tiu_dma_id(after)": [
      3,
      6
    ],
    "operands": [
      {
        "address": 4301058048,
        "layout": "continuous",
        "memory_type": "<256x1xf32>",
        "name": "/embedding_layer/Gather_1_output_0_Slice",
        "reshape": "",
        "slice": "[...]",
        "type": "tensor<256x1xf32, 4301058048 : i64>"
      }
    ],
    "results": [
      {
        "address": 4301058048,
        "layout": "continuous",
        "memory_type": "<256xf32>",
        "name": "/embedding_layer/Gather_1_output_0_Gather",
        "reshape": "",
        "slice": "[...]",
        "type": "tensor<256xf32, 4301058048 : i64>"
      }
    ]
  },
  {
    "file-line": 18,
    "subnet_id": 0,
    "opcode": "tpu.Cast",
    "tiu_dma_id(before)": [
      3,
      6
    ],
    "tiu_dma_id(after)": [
      4,
      8
    ],
    "operands": [
      {
        "address": 4301058048,
        "layout": "continuous",
        "memory_type": "<256xf32>",
        "name": "/embedding_layer/Gather_1_output_0_Gather",
        "reshape": "",
        "slice": "[...]",
        "type": "tensor<256xf32, 4301058048 : i64>"
      }
    ],
    "results": [
      {
        "address": 4301123584,
        "layout": "continuous",
        "memory_type": "<256xsi32>",
        "name": "/embedding_layer/Gather_1_output_0_Gather_si32",
        "reshape": "",
        "slice": "[...]",
        "type": "tensor<256xi32, 4301123584 : i64>"
      }
    ]
  },
  {
    "file-line": 20,
    "subnet_id": 0,
    "opcode": "tpu.Gather",
    "tiu_dma_id(before)": [
      4,
      8
    ],
    "tiu_dma_id(after)": [
      6,
      10
    ],
    "operands": [
      {
        "address": 4296511488,
        "layout": "continuous",
        "memory_type": "<3027x64xf32>",
        "name": "embedding_layer.embedding_layer.vid.weight",
        "reshape": "",
        "slice": "[...]",
        "type": "tensor<3027x64xf32, 4296511488 : i64>"
      },
      {
        "address": 4301123584,
        "layout": "continuous",
        "memory_type": "<256xsi32>",
        "name": "/embedding_layer/Gather_1_output_0_Gather_si32",
        "reshape": "",
        "slice": "[...]",
        "type": "tensor<256xi32, 4301123584 : i64>"
      },
      {}
    ],
    "results": [
      {
        "address": 4301058048,
        "layout": "continuous",
        "memory_type": "<256x64xf32>",
        "name": "/embedding_layer/vid/Gather_output_0_Gather",
        "reshape": "",
        "slice": "[...]",
        "type": "tensor<256x64xf32, 4301058048 : i64>"
      }
    ]
  },
  {
    "file-line": 21,
    "subnet_id": 0,
    "opcode": "tpu.Slice",
    "tiu_dma_id(before)": [
      6,
      10
    ],
    "tiu_dma_id(after)": [
      6,
      11
    ],
    "operands": [
      {
        "address": 4300984320,
        "layout": "continuous",
        "memory_type": "<256x5xf32>",
        "name": "input",
        "reshape": "",
        "slice": "[...]",
        "type": "tensor<256x5xf32, 4300984320 : i64>"
      },
      {},
      {},
      {},
      {}
    ],
    "results": [
      {
        "address": 4301123584,
        "layout": "continuous",
        "memory_type": "<256x1xf32>",
        "name": "/embedding_layer/Gather_2_output_0_Slice",
        "reshape": "",
        "slice": "[...]",
        "type": "tensor<256x1xf32, 4301123584 : i64>"
      }
    ]
  },
  {
    "file-line": 22,
    "subnet_id": 0,
    "opcode": "tpu.Reshape",
    "tiu_dma_id(before)": [
      6,
      11
    ],
    "tiu_dma_id(after)": [
      6,
      11
    ],
    "operands": [
      {
        "address": 4301123584,
        "layout": "continuous",
        "memory_type": "<256x1xf32>",
        "name": "/embedding_layer/Gather_2_output_0_Slice",
        "reshape": "",
        "slice": "[...]",
        "type": "tensor<256x1xf32, 4301123584 : i64>"
      }
    ],
    "results": [
      {
        "address": 4301123584,
        "layout": "continuous",
        "memory_type": "<256xf32>",
        "name": "/embedding_layer/Gather_2_output_0_Gather",
        "reshape": "",
        "slice": "[...]",
        "type": "tensor<256xf32, 4301123584 : i64>"
      }
    ]
  },
  {
    "file-line": 23,
    "subnet_id": 0,
    "opcode": "tpu.Cast",
    "tiu_dma_id(before)": [
      6,
      11
    ],
    "tiu_dma_id(after)": [
      7,
      13
    ],
    "operands": [
      {
        "address": 4301123584,
        "layout": "continuous",
        "memory_type": "<256xf32>",
        "name": "/embedding_layer/Gather_2_output_0_Gather",
        "reshape": "",
        "slice": "[...]",
        "type": "tensor<256xf32, 4301123584 : i64>"
      }
    ],
    "results": [
      {
        "address": 4301189120,
        "layout": "continuous",
        "memory_type": "<256xsi32>",
        "name": "/embedding_layer/Gather_2_output_0_Gather_si32",
        "reshape": "",
        "slice": "[...]",
        "type": "tensor<256xi32, 4301189120 : i64>"
      }
    ]
  },
  {
    "file-line": 25,
    "subnet_id": 0,
    "opcode": "tpu.Gather",
    "tiu_dma_id(before)": [
      7,
      13
    ],
    "tiu_dma_id(after)": [
      9,
      15
    ],
    "operands": [
      {
        "address": 4297289728,
        "layout": "continuous",
        "memory_type": "<3x64xf32>",
        "name": "embedding_layer.embedding_layer.sex.weight",
        "reshape": "",
        "slice": "[...]",
        "type": "tensor<3x64xf32, 4297289728 : i64>"
      },
      {
        "address": 4301189120,
        "layout": "continuous",
        "memory_type": "<256xsi32>",
        "name": "/embedding_layer/Gather_2_output_0_Gather_si32",
        "reshape": "",
        "slice": "[...]",
        "type": "tensor<256xi32, 4301189120 : i64>"
      },
      {}
    ],
    "results": [
      {
        "address": 4301123584,
        "layout": "continuous",
        "memory_type": "<256x64xf32>",
        "name": "/embedding_layer/sex/Gather_output_0_Gather",
        "reshape": "",
        "slice": "[...]",
        "type": "tensor<256x64xf32, 4301123584 : i64>"
      }
    ]
  },
  {
    "file-line": 26,
    "subnet_id": 0,
    "opcode": "tpu.Slice",
    "tiu_dma_id(before)": [
      9,
      15
    ],
    "tiu_dma_id(after)": [
      9,
      16
    ],
    "operands": [
      {
        "address": 4300984320,
        "layout": "continuous",
        "memory_type": "<256x5xf32>",
        "name": "input",
        "reshape": "",
        "slice": "[...]",
        "type": "tensor<256x5xf32, 4300984320 : i64>"
      },
      {},
      {},
      {},
      {}
    ],
    "results": [
      {
        "address": 4301189120,
        "layout": "continuous",
        "memory_type": "<256x1xf32>",
        "name": "/embedding_layer/Gather_3_output_0_Slice",
        "reshape": "",
        "slice": "[...]",
        "type": "tensor<256x1xf32, 4301189120 : i64>"
      }
    ]
  },
  {
    "file-line": 27,
    "subnet_id": 0,
    "opcode": "tpu.Reshape",
    "tiu_dma_id(before)": [
      9,
      16
    ],
    "tiu_dma_id(after)": [
      9,
      16
    ],
    "operands": [
      {
        "address": 4301189120,
        "layout": "continuous",
        "memory_type": "<256x1xf32>",
        "name": "/embedding_layer/Gather_3_output_0_Slice",
        "reshape": "",
        "slice": "[...]",
        "type": "tensor<256x1xf32, 4301189120 : i64>"
      }
    ],
    "results": [
      {
        "address": 4301189120,
        "layout": "continuous",
        "memory_type": "<256xf32>",
        "name": "/embedding_layer/Gather_3_output_0_Gather",
        "reshape": "",
        "slice": "[...]",
        "type": "tensor<256xf32, 4301189120 : i64>"
      }
    ]
  },
  {
    "file-line": 28,
    "subnet_id": 0,
    "opcode": "tpu.Cast",
    "tiu_dma_id(before)": [
      9,
      16
    ],
    "tiu_dma_id(after)": [
      10,
      18
    ],
    "operands": [
      {
        "address": 4301189120,
        "layout": "continuous",
        "memory_type": "<256xf32>",
        "name": "/embedding_layer/Gather_3_output_0_Gather",
        "reshape": "",
        "slice": "[...]",
        "type": "tensor<256xf32, 4301189120 : i64>"
      }
    ],
    "results": [
      {
        "address": 4301254656,
        "layout": "continuous",
        "memory_type": "<256xsi32>",
        "name": "/embedding_layer/Gather_3_output_0_Gather_si32",
        "reshape": "",
        "slice": "[...]",
        "type": "tensor<256xi32, 4301254656 : i64>"
      }
    ]
  },
  {
    "file-line": 30,
    "subnet_id": 0,
    "opcode": "tpu.Gather",
    "tiu_dma_id(before)": [
      10,
      18
    ],
    "tiu_dma_id(after)": [
      12,
      20
    ],
    "operands": [
      {
        "address": 4297293824,
        "layout": "continuous",
        "memory_type": "<8x64xf32>",
        "name": "embedding_layer.embedding_layer.age.weight",
        "reshape": "",
        "slice": "[...]",
        "type": "tensor<8x64xf32, 4297293824 : i64>"
      },
      {
        "address": 4301254656,
        "layout": "continuous",
        "memory_type": "<256xsi32>",
        "name": "/embedding_layer/Gather_3_output_0_Gather_si32",
        "reshape": "",
        "slice": "[...]",
        "type": "tensor<256xi32, 4301254656 : i64>"
      },
      {}
    ],
    "results": [
      {
        "address": 4301189120,
        "layout": "continuous",
        "memory_type": "<256x64xf32>",
        "name": "/embedding_layer/age/Gather_output_0_Gather",
        "reshape": "",
        "slice": "[...]",
        "type": "tensor<256x64xf32, 4301189120 : i64>"
      }
    ]
  },
  {
    "file-line": 31,
    "subnet_id": 0,
    "opcode": "tpu.Slice",
    "tiu_dma_id(before)": [
      12,
      20
    ],
    "tiu_dma_id(after)": [
      12,
      21
    ],
    "operands": [
      {
        "address": 4300984320,
        "layout": "continuous",
        "memory_type": "<256x5xf32>",
        "name": "input",
        "reshape": "",
        "slice": "[...]",
        "type": "tensor<256x5xf32, 4300984320 : i64>"
      },
      {},
      {},
      {},
      {}
    ],
    "results": [
      {
        "address": 4301254656,
        "layout": "continuous",
        "memory_type": "<256x1xf32>",
        "name": "/embedding_layer/Gather_4_output_0_Slice",
        "reshape": "",
        "slice": "[...]",
        "type": "tensor<256x1xf32, 4301254656 : i64>"
      }
    ]
  },
  {
    "file-line": 32,
    "subnet_id": 0,
    "opcode": "tpu.Reshape",
    "tiu_dma_id(before)": [
      12,
      21
    ],
    "tiu_dma_id(after)": [
      12,
      21
    ],
    "operands": [
      {
        "address": 4301254656,
        "layout": "continuous",
        "memory_type": "<256x1xf32>",
        "name": "/embedding_layer/Gather_4_output_0_Slice",
        "reshape": "",
        "slice": "[...]",
        "type": "tensor<256x1xf32, 4301254656 : i64>"
      }
    ],
    "results": [
      {
        "address": 4301254656,
        "layout": "continuous",
        "memory_type": "<256xf32>",
        "name": "/embedding_layer/Gather_4_output_0_Gather",
        "reshape": "",
        "slice": "[...]",
        "type": "tensor<256xf32, 4301254656 : i64>"
      }
    ]
  },
  {
    "file-line": 33,
    "subnet_id": 0,
    "opcode": "tpu.Cast",
    "tiu_dma_id(before)": [
      12,
      21
    ],
    "tiu_dma_id(after)": [
      13,
      23
    ],
    "operands": [
      {
        "address": 4301254656,
        "layout": "continuous",
        "memory_type": "<256xf32>",
        "name": "/embedding_layer/Gather_4_output_0_Gather",
        "reshape": "",
        "slice": "[...]",
        "type": "tensor<256xf32, 4301254656 : i64>"
      }
    ],
    "results": [
      {
        "address": 4301320192,
        "layout": "continuous",
        "memory_type": "<256xsi32>",
        "name": "/embedding_layer/Gather_4_output_0_Gather_si32",
        "reshape": "",
        "slice": "[...]",
        "type": "tensor<256xi32, 4301320192 : i64>"
      }
    ]
  },
  {
    "file-line": 35,
    "subnet_id": 0,
    "opcode": "tpu.Gather",
    "tiu_dma_id(before)": [
      13,
      23
    ],
    "tiu_dma_id(after)": [
      15,
      25
    ],
    "operands": [
      {
        "address": 4297297920,
        "layout": "continuous",
        "memory_type": "<22x64xf32>",
        "name": "embedding_layer.embedding_layer.job.weight",
        "reshape": "",
        "slice": "[...]",
        "type": "tensor<22x64xf32, 4297297920 : i64>"
      },
      {
        "address": 4301320192,
        "layout": "continuous",
        "memory_type": "<256xsi32>",
        "name": "/embedding_layer/Gather_4_output_0_Gather_si32",
        "reshape": "",
        "slice": "[...]",
        "type": "tensor<256xi32, 4301320192 : i64>"
      },
      {}
    ],
    "results": [
      {
        "address": 4301254656,
        "layout": "continuous",
        "memory_type": "<256x64xf32>",
        "name": "/embedding_layer/job/Gather_output_0_Gather",
        "reshape": "",
        "slice": "[...]",
        "type": "tensor<256x64xf32, 4301254656 : i64>"
      }
    ]
  },
  {
    "file-line": 36,
    "subnet_id": 0,
    "opcode": "tpu.Concat",
    "tiu_dma_id(before)": [
      15,
      25
    ],
    "tiu_dma_id(after)": [
      15,
      30
    ],
    "operands": [
      {
        "address": 4300992512,
        "layout": "continuous",
        "memory_type": "<256x64xf32>",
        "name": "/embedding_layer/uid/Gather_output_0_Gather",
        "reshape": "",
        "slice": "[...]",
        "type": "tensor<256x64xf32, 4300992512 : i64>"
      },
      {
        "address": 4301058048,
        "layout": "continuous",
        "memory_type": "<256x64xf32>",
        "name": "/embedding_layer/vid/Gather_output_0_Gather",
        "reshape": "",
        "slice": "[...]",
        "type": "tensor<256x64xf32, 4301058048 : i64>"
      },
      {
        "address": 4301123584,
        "layout": "continuous",
        "memory_type": "<256x64xf32>",
        "name": "/embedding_layer/sex/Gather_output_0_Gather",
        "reshape": "",
        "slice": "[...]",
        "type": "tensor<256x64xf32, 4301123584 : i64>"
      },
      {
        "address": 4301189120,
        "layout": "continuous",
        "memory_type": "<256x64xf32>",
        "name": "/embedding_layer/age/Gather_output_0_Gather",
        "reshape": "",
        "slice": "[...]",
        "type": "tensor<256x64xf32, 4301189120 : i64>"
      },
      {
        "address": 4301254656,
        "layout": "continuous",
        "memory_type": "<256x64xf32>",
        "name": "/embedding_layer/job/Gather_output_0_Gather",
        "reshape": "",
        "slice": "[...]",
        "type": "tensor<256x64xf32, 4301254656 : i64>"
      }
    ],
    "results": [
      {
        "address": 4301504512,
        "layout": "continuous",
        "memory_type": "<256x320xf32>",
        "name": "/Concat_output_0_Concat",
        "reshape": "",
        "slice": "[...]",
        "type": "tensor<256x320xf32, 4301504512 : i64>"
      }
    ]
  },
  {
    "file-line": 39,
    "subnet_id": 0,
    "opcode": "tpu.MatMul",
    "tiu_dma_id(before)": [
      15,
      30
    ],
    "tiu_dma_id(after)": [
      21,
      42
    ],
    "operands": [
      {
        "address": 4301504512,
        "layout": "continuous",
        "memory_type": "<256x320xf32>",
        "name": "/Concat_output_0_Concat",
        "reshape": "",
        "slice": "[...]",
        "type": "tensor<256x320xf32, 4301504512 : i64>"
      },
      {
        "address": 4297306112,
        "layout": "continuous",
        "memory_type": "<320x500xf32>",
        "name": "dnn.dnn.0.weight_fix",
        "reshape": "",
        "slice": "[...]",
        "type": "tensor<320x500xf32, 4297306112 : i64>"
      },
      {
        "address": 4297949184,
        "layout": "continuous",
        "memory_type": "<1x1x1x500xf32>",
        "name": "dnn.dnn.0.bias",
        "reshape": "",
        "slice": "[...]",
        "type": "tensor<1x1x1x500xf32, 4297949184 : i64>"
      }
    ],
    "results": [
      {
        "address": 4300992512,
        "layout": "continuous",
        "memory_type": "<256x500xf32>",
        "name": "/dnn/dnn/dnn.1/Relu_output_0_Relu",
        "reshape": "",
        "slice": "[...]",
        "type": "tensor<256x500xf32, 4300992512 : i64>"
      }
    ]
  },
  {
    "file-line": 42,
    "subnet_id": 0,
    "opcode": "tpu.MatMul",
    "tiu_dma_id(before)": [
      21,
      42
    ],
    "tiu_dma_id(after)": [
      27,
      54
    ],
    "operands": [
      {
        "address": 4300992512,
        "layout": "continuous",
        "memory_type": "<256x500xf32>",
        "name": "/dnn/dnn/dnn.1/Relu_output_0_Relu",
        "reshape": "",
        "slice": "[...]",
        "type": "tensor<256x500xf32, 4300992512 : i64>"
      },
      {
        "address": 4297953280,
        "layout": "continuous",
        "memory_type": "<500x500xf32>",
        "name": "dnn.dnn.2.weight_fix",
        "reshape": "",
        "slice": "[...]",
        "type": "tensor<500x500xf32, 4297953280 : i64>"
      },
      {
        "address": 4298956800,
        "layout": "continuous",
        "memory_type": "<1x1x1x500xf32>",
        "name": "dnn.dnn.2.bias",
        "reshape": "",
        "slice": "[...]",
        "type": "tensor<1x1x1x500xf32, 4298956800 : i64>"
      }
    ],
    "results": [
      {
        "address": 4301504512,
        "layout": "continuous",
        "memory_type": "<256x500xf32>",
        "name": "/dnn/dnn/dnn.3/Relu_output_0_Relu",
        "reshape": "",
        "slice": "[...]",
        "type": "tensor<256x500xf32, 4301504512 : i64>"
      }
    ]
  },
  {
    "file-line": 45,
    "subnet_id": 0,
    "opcode": "tpu.MatMul",
    "tiu_dma_id(before)": [
      27,
      54
    ],
    "tiu_dma_id(after)": [
      33,
      66
    ],
    "operands": [
      {
        "address": 4301504512,
        "layout": "continuous",
        "memory_type": "<256x500xf32>",
        "name": "/dnn/dnn/dnn.3/Relu_output_0_Relu",
        "reshape": "",
        "slice": "[...]",
        "type": "tensor<256x500xf32, 4301504512 : i64>"
      },
      {
        "address": 4298960896,
        "layout": "continuous",
        "memory_type": "<500x500xf32>",
        "name": "dnn.dnn.4.weight_fix",
        "reshape": "",
        "slice": "[...]",
        "type": "tensor<500x500xf32, 4298960896 : i64>"
      },
      {
        "address": 4299964416,
        "layout": "continuous",
        "memory_type": "<1x1x1x500xf32>",
        "name": "dnn.dnn.4.bias",
        "reshape": "",
        "slice": "[...]",
        "type": "tensor<1x1x1x500xf32, 4299964416 : i64>"
      }
    ],
    "results": [
      {
        "address": 4300992512,
        "layout": "continuous",
        "memory_type": "<256x500xf32>",
        "name": "/dnn/dnn/dnn.5/Relu_output_0_Relu",
        "reshape": "",
        "slice": "[...]",
        "type": "tensor<256x500xf32, 4300992512 : i64>"
      }
    ]
  },
  {
    "file-line": 48,
    "subnet_id": 0,
    "opcode": "tpu.MatMul",
    "tiu_dma_id(before)": [
      33,
      66
    ],
    "tiu_dma_id(after)": [
      39,
      78
    ],
    "operands": [
      {
        "address": 4300992512,
        "layout": "continuous",
        "memory_type": "<256x500xf32>",
        "name": "/dnn/dnn/dnn.5/Relu_output_0_Relu",
        "reshape": "",
        "slice": "[...]",
        "type": "tensor<256x500xf32, 4300992512 : i64>"
      },
      {
        "address": 4299968512,
        "layout": "continuous",
        "memory_type": "<500x500xf32>",
        "name": "dnn.dnn.6.weight_fix",
        "reshape": "",
        "slice": "[...]",
        "type": "tensor<500x500xf32, 4299968512 : i64>"
      },
      {
        "address": 4300972032,
        "layout": "continuous",
        "memory_type": "<1x1x1x500xf32>",
        "name": "dnn.dnn.6.bias",
        "reshape": "",
        "slice": "[...]",
        "type": "tensor<1x1x1x500xf32, 4300972032 : i64>"
      }
    ],
    "results": [
      {
        "address": 4301504512,
        "layout": "continuous",
        "memory_type": "<256x500xf32>",
        "name": "/dnn/dnn/dnn.7/Relu_output_0_Relu",
        "reshape": "",
        "slice": "[...]",
        "type": "tensor<256x500xf32, 4301504512 : i64>"
      }
    ]
  },
  {
    "file-line": 51,
    "subnet_id": 0,
    "opcode": "tpu.MatMul",
    "tiu_dma_id(before)": [
      39,
      78
    ],
    "tiu_dma_id(after)": [
      43,
      90
    ],
    "operands": [
      {
        "address": 4301504512,
        "layout": "continuous",
        "memory_type": "<256x500xf32>",
        "name": "/dnn/dnn/dnn.7/Relu_output_0_Relu",
        "reshape": "",
        "slice": "[...]",
        "type": "tensor<256x500xf32, 4301504512 : i64>"
      },
      {
        "address": 4300976128,
        "layout": "continuous",
        "memory_type": "<500x1xf32>",
        "name": "dnn.dnn.8.weight_fix",
        "reshape": "",
        "slice": "[...]",
        "type": "tensor<500x1xf32, 4300976128 : i64>"
      },
      {
        "address": 4300980224,
        "layout": "continuous",
        "memory_type": "<1x1x1x1xf32>",
        "name": "dnn.dnn.8.bias",
        "reshape": "",
        "slice": "[...]",
        "type": "tensor<1x1x1x1xf32, 4300980224 : i64>"
      }
    ],
    "results": [
      {
        "address": 4300992512,
        "layout": "continuous",
        "memory_type": "<256x1xf32>",
        "name": "/dnn/dnn/dnn.8/Gemm_output_0_Gemm",
        "reshape": "",
        "slice": "[...]",
        "type": "tensor<256x1xf32, 4300992512 : i64>"
      }
    ]
  },
  {
    "file-line": 52,
    "subnet_id": 0,
    "opcode": "tpu.Active",
    "tiu_dma_id(before)": [
      43,
      90
    ],
    "tiu_dma_id(after)": [
      57,
      92
    ],
    "operands": [
      {
        "address": 4300992512,
        "layout": "continuous",
        "memory_type": "<256x1xf32>",
        "name": "/dnn/dnn/dnn.8/Gemm_output_0_Gemm",
        "reshape": "",
        "slice": "[...]",
        "type": "tensor<256x1xf32, 4300992512 : i64>"
      }
    ],
    "results": [
      {
        "address": 4300996608,
        "layout": "continuous",
        "memory_type": "<256x1xf32>",
        "name": "output_Sigmoid",
        "reshape": "",
        "slice": "[...]",
        "type": "tensor<256x1xf32, 4300996608 : i64>"
      }
    ]
  }
]