[
  {
    "file-line": 11,
    "subnet_id": 0,
    "opcode": "tpu.Slice",
    "tiu_dma_id(before)": [
      0,
      0
    ],
    "tiu_dma_id(after)": [
      0,
      1
    ],
    "operands": [
      {
        "address": 4298076160,
        "layout": "continuous",
        "memory_type": "<256x5xf32>",
        "name": "input",
        "reshape": "",
        "slice": "[...]",
        "type": "tensor<256x5xf32, 4298076160 : i64>"
      },
      {},
      {},
      {},
      {}
    ],
    "results": [
      {
        "address": 4298051584,
        "layout": "continuous",
        "memory_type": "<256x1xf32>",
        "name": "/embedding_layer/Gather_output_0_Slice",
        "reshape": "",
        "slice": "[...]",
        "type": "tensor<256x1xf32, 4298051584 : i64>"
      }
    ]
  },
  {
    "file-line": 12,
    "subnet_id": 0,
    "opcode": "tpu.Reshape",
    "tiu_dma_id(before)": [
      0,
      1
    ],
    "tiu_dma_id(after)": [
      0,
      1
    ],
    "operands": [
      {
        "address": 4298051584,
        "layout": "continuous",
        "memory_type": "<256x1xf32>",
        "name": "/embedding_layer/Gather_output_0_Slice",
        "reshape": "",
        "slice": "[...]",
        "type": "tensor<256x1xf32, 4298051584 : i64>"
      }
    ],
    "results": [
      {
        "address": 4298051584,
        "layout": "continuous",
        "memory_type": "<256xf32>",
        "name": "/embedding_layer/Gather_output_0_Gather",
        "reshape": "",
        "slice": "[...]",
        "type": "tensor<256xf32, 4298051584 : i64>"
      }
    ]
  },
  {
    "file-line": 13,
    "subnet_id": 0,
    "opcode": "tpu.Cast",
    "tiu_dma_id(before)": [
      0,
      1
    ],
    "tiu_dma_id(after)": [
      1,
      3
    ],
    "operands": [
      {
        "address": 4298051584,
        "layout": "continuous",
        "memory_type": "<256xf32>",
        "name": "/embedding_layer/Gather_output_0_Gather",
        "reshape": "",
        "slice": "[...]",
        "type": "tensor<256xf32, 4298051584 : i64>"
      }
    ],
    "results": [
      {
        "address": 4298047488,
        "layout": "continuous",
        "memory_type": "<256xsi32>",
        "name": "/embedding_layer/Gather_output_0_Gather_si32",
        "reshape": "",
        "slice": "[...]",
        "type": "tensor<256xi32, 4298047488 : i64>"
      }
    ]
  },
  {
    "file-line": 14,
    "subnet_id": 0,
    "opcode": "tpu.Slice",
    "tiu_dma_id(before)": [
      1,
      3
    ],
    "tiu_dma_id(after)": [
      1,
      4
    ],
    "operands": [
      {
        "address": 4298076160,
        "layout": "continuous",
        "memory_type": "<256x5xf32>",
        "name": "input",
        "reshape": "",
        "slice": "[...]",
        "type": "tensor<256x5xf32, 4298076160 : i64>"
      },
      {},
      {},
      {},
      {}
    ],
    "results": [
      {
        "address": 4298043392,
        "layout": "continuous",
        "memory_type": "<256x1xf32>",
        "name": "/embedding_layer/Gather_1_output_0_Slice",
        "reshape": "",
        "slice": "[...]",
        "type": "tensor<256x1xf32, 4298043392 : i64>"
      }
    ]
  },
  {
    "file-line": 15,
    "subnet_id": 0,
    "opcode": "tpu.Reshape",
    "tiu_dma_id(before)": [
      1,
      4
    ],
    "tiu_dma_id(after)": [
      1,
      4
    ],
    "operands": [
      {
        "address": 4298043392,
        "layout": "continuous",
        "memory_type": "<256x1xf32>",
        "name": "/embedding_layer/Gather_1_output_0_Slice",
        "reshape": "",
        "slice": "[...]",
        "type": "tensor<256x1xf32, 4298043392 : i64>"
      }
    ],
    "results": [
      {
        "address": 4298043392,
        "layout": "continuous",
        "memory_type": "<256xf32>",
        "name": "/embedding_layer/Gather_1_output_0_Gather",
        "reshape": "",
        "slice": "[...]",
        "type": "tensor<256xf32, 4298043392 : i64>"
      }
    ]
  },
  {
    "file-line": 16,
    "subnet_id": 0,
    "opcode": "tpu.Cast",
    "tiu_dma_id(before)": [
      1,
      4
    ],
    "tiu_dma_id(after)": [
      2,
      6
    ],
    "operands": [
      {
        "address": 4298043392,
        "layout": "continuous",
        "memory_type": "<256xf32>",
        "name": "/embedding_layer/Gather_1_output_0_Gather",
        "reshape": "",
        "slice": "[...]",
        "type": "tensor<256xf32, 4298043392 : i64>"
      }
    ],
    "results": [
      {
        "address": 4298039296,
        "layout": "continuous",
        "memory_type": "<256xsi32>",
        "name": "/embedding_layer/Gather_1_output_0_Gather_si32",
        "reshape": "",
        "slice": "[...]",
        "type": "tensor<256xi32, 4298039296 : i64>"
      }
    ]
  },
  {
    "file-line": 17,
    "subnet_id": 0,
    "opcode": "tpu.Slice",
    "tiu_dma_id(before)": [
      2,
      6
    ],
    "tiu_dma_id(after)": [
      2,
      7
    ],
    "operands": [
      {
        "address": 4298076160,
        "layout": "continuous",
        "memory_type": "<256x5xf32>",
        "name": "input",
        "reshape": "",
        "slice": "[...]",
        "type": "tensor<256x5xf32, 4298076160 : i64>"
      },
      {},
      {},
      {},
      {}
    ],
    "results": [
      {
        "address": 4298035200,
        "layout": "continuous",
        "memory_type": "<256x1xf32>",
        "name": "/embedding_layer/Gather_2_output_0_Slice",
        "reshape": "",
        "slice": "[...]",
        "type": "tensor<256x1xf32, 4298035200 : i64>"
      }
    ]
  },
  {
    "file-line": 18,
    "subnet_id": 0,
    "opcode": "tpu.Reshape",
    "tiu_dma_id(before)": [
      2,
      7
    ],
    "tiu_dma_id(after)": [
      2,
      7
    ],
    "operands": [
      {
        "address": 4298035200,
        "layout": "continuous",
        "memory_type": "<256x1xf32>",
        "name": "/embedding_layer/Gather_2_output_0_Slice",
        "reshape": "",
        "slice": "[...]",
        "type": "tensor<256x1xf32, 4298035200 : i64>"
      }
    ],
    "results": [
      {
        "address": 4298035200,
        "layout": "continuous",
        "memory_type": "<256xf32>",
        "name": "/embedding_layer/Gather_2_output_0_Gather",
        "reshape": "",
        "slice": "[...]",
        "type": "tensor<256xf32, 4298035200 : i64>"
      }
    ]
  },
  {
    "file-line": 19,
    "subnet_id": 0,
    "opcode": "tpu.Cast",
    "tiu_dma_id(before)": [
      2,
      7
    ],
    "tiu_dma_id(after)": [
      3,
      9
    ],
    "operands": [
      {
        "address": 4298035200,
        "layout": "continuous",
        "memory_type": "<256xf32>",
        "name": "/embedding_layer/Gather_2_output_0_Gather",
        "reshape": "",
        "slice": "[...]",
        "type": "tensor<256xf32, 4298035200 : i64>"
      }
    ],
    "results": [
      {
        "address": 4298031104,
        "layout": "continuous",
        "memory_type": "<256xsi32>",
        "name": "/embedding_layer/Gather_2_output_0_Gather_si32",
        "reshape": "",
        "slice": "[...]",
        "type": "tensor<256xi32, 4298031104 : i64>"
      }
    ]
  },
  {
    "file-line": 20,
    "subnet_id": 0,
    "opcode": "tpu.Slice",
    "tiu_dma_id(before)": [
      3,
      9
    ],
    "tiu_dma_id(after)": [
      3,
      10
    ],
    "operands": [
      {
        "address": 4298076160,
        "layout": "continuous",
        "memory_type": "<256x5xf32>",
        "name": "input",
        "reshape": "",
        "slice": "[...]",
        "type": "tensor<256x5xf32, 4298076160 : i64>"
      },
      {},
      {},
      {},
      {}
    ],
    "results": [
      {
        "address": 4298027008,
        "layout": "continuous",
        "memory_type": "<256x1xf32>",
        "name": "/embedding_layer/Gather_3_output_0_Slice",
        "reshape": "",
        "slice": "[...]",
        "type": "tensor<256x1xf32, 4298027008 : i64>"
      }
    ]
  },
  {
    "file-line": 21,
    "subnet_id": 0,
    "opcode": "tpu.Reshape",
    "tiu_dma_id(before)": [
      3,
      10
    ],
    "tiu_dma_id(after)": [
      3,
      10
    ],
    "operands": [
      {
        "address": 4298027008,
        "layout": "continuous",
        "memory_type": "<256x1xf32>",
        "name": "/embedding_layer/Gather_3_output_0_Slice",
        "reshape": "",
        "slice": "[...]",
        "type": "tensor<256x1xf32, 4298027008 : i64>"
      }
    ],
    "results": [
      {
        "address": 4298027008,
        "layout": "continuous",
        "memory_type": "<256xf32>",
        "name": "/embedding_layer/Gather_3_output_0_Gather",
        "reshape": "",
        "slice": "[...]",
        "type": "tensor<256xf32, 4298027008 : i64>"
      }
    ]
  },
  {
    "file-line": 22,
    "subnet_id": 0,
    "opcode": "tpu.Cast",
    "tiu_dma_id(before)": [
      3,
      10
    ],
    "tiu_dma_id(after)": [
      4,
      12
    ],
    "operands": [
      {
        "address": 4298027008,
        "layout": "continuous",
        "memory_type": "<256xf32>",
        "name": "/embedding_layer/Gather_3_output_0_Gather",
        "reshape": "",
        "slice": "[...]",
        "type": "tensor<256xf32, 4298027008 : i64>"
      }
    ],
    "results": [
      {
        "address": 4298022912,
        "layout": "continuous",
        "memory_type": "<256xsi32>",
        "name": "/embedding_layer/Gather_3_output_0_Gather_si32",
        "reshape": "",
        "slice": "[...]",
        "type": "tensor<256xi32, 4298022912 : i64>"
      }
    ]
  },
  {
    "file-line": 23,
    "subnet_id": 0,
    "opcode": "tpu.Slice",
    "tiu_dma_id(before)": [
      4,
      12
    ],
    "tiu_dma_id(after)": [
      4,
      13
    ],
    "operands": [
      {
        "address": 4298076160,
        "layout": "continuous",
        "memory_type": "<256x5xf32>",
        "name": "input",
        "reshape": "",
        "slice": "[...]",
        "type": "tensor<256x5xf32, 4298076160 : i64>"
      },
      {},
      {},
      {},
      {}
    ],
    "results": [
      {
        "address": 4298018816,
        "layout": "continuous",
        "memory_type": "<256x1xf32>",
        "name": "/embedding_layer/Gather_4_output_0_Slice",
        "reshape": "",
        "slice": "[...]",
        "type": "tensor<256x1xf32, 4298018816 : i64>"
      }
    ]
  },
  {
    "file-line": 24,
    "subnet_id": 0,
    "opcode": "tpu.Reshape",
    "tiu_dma_id(before)": [
      4,
      13
    ],
    "tiu_dma_id(after)": [
      4,
      13
    ],
    "operands": [
      {
        "address": 4298018816,
        "layout": "continuous",
        "memory_type": "<256x1xf32>",
        "name": "/embedding_layer/Gather_4_output_0_Slice",
        "reshape": "",
        "slice": "[...]",
        "type": "tensor<256x1xf32, 4298018816 : i64>"
      }
    ],
    "results": [
      {
        "address": 4298018816,
        "layout": "continuous",
        "memory_type": "<256xf32>",
        "name": "/embedding_layer/Gather_4_output_0_Gather",
        "reshape": "",
        "slice": "[...]",
        "type": "tensor<256xf32, 4298018816 : i64>"
      }
    ]
  },
  {
    "file-line": 25,
    "subnet_id": 0,
    "opcode": "tpu.Cast",
    "tiu_dma_id(before)": [
      4,
      13
    ],
    "tiu_dma_id(after)": [
      5,
      15
    ],
    "operands": [
      {
        "address": 4298018816,
        "layout": "continuous",
        "memory_type": "<256xf32>",
        "name": "/embedding_layer/Gather_4_output_0_Gather",
        "reshape": "",
        "slice": "[...]",
        "type": "tensor<256xf32, 4298018816 : i64>"
      }
    ],
    "results": [
      {
        "address": 4298014720,
        "layout": "continuous",
        "memory_type": "<256xsi32>",
        "name": "/embedding_layer/Gather_4_output_0_Gather_si32",
        "reshape": "",
        "slice": "[...]",
        "type": "tensor<256xi32, 4298014720 : i64>"
      }
    ]
  },
  {
    "file-line": 27,
    "subnet_id": 0,
    "opcode": "tpu.Gather",
    "tiu_dma_id(before)": [
      5,
      15
    ],
    "tiu_dma_id(after)": [
      7,
      17
    ],
    "operands": [
      {
        "address": 4294967296,
        "layout": "continuous",
        "memory_type": "<6032x64xf32>",
        "name": "embedding_layer.embedding_layer.uid.weight",
        "reshape": "",
        "slice": "[...]",
        "type": "tensor<6032x64xf32, 4294967296 : i64>"
      },
      {
        "address": 4298047488,
        "layout": "continuous",
        "memory_type": "<256xsi32>",
        "name": "/embedding_layer/Gather_output_0_Gather_si32",
        "reshape": "",
        "slice": "[...]",
        "type": "tensor<256xi32, 4298047488 : i64>"
      },
      {}
    ],
    "results": [
      {
        "address": 4297355264,
        "layout": "continuous",
        "memory_type": "<256x64xf32>",
        "name": "/embedding_layer/uid/Gather_output_0_Gather",
        "reshape": "",
        "slice": "[...]",
        "type": "tensor<256x64xf32, 4297355264 : i64>"
      }
    ]
  },
  {
    "file-line": 28,
    "subnet_id": 0,
    "opcode": "tpu.Unsqueeze",
    "tiu_dma_id(before)": [
      7,
      17
    ],
    "tiu_dma_id(after)": [
      7,
      18
    ],
    "operands": [
      {
        "address": 4297355264,
        "layout": "continuous",
        "memory_type": "<256x64xf32>",
        "name": "/embedding_layer/uid/Gather_output_0_Gather",
        "reshape": "",
        "slice": "[...]",
        "type": "tensor<256x64xf32, 4297355264 : i64>"
      }
    ],
    "results": [
      {
        "address": 4297682944,
        "layout": "continuous",
        "memory_type": "<1x256x64xf32>",
        "name": "/fm_layer/inner_product_layer/Unsqueeze_output_0_Unsqueeze",
        "reshape": "",
        "slice": "[...]",
        "type": "tensor<1x256x64xf32, 4297682944 : i64>"
      }
    ]
  },
  {
    "file-line": 30,
    "subnet_id": 0,
    "opcode": "tpu.Gather",
    "tiu_dma_id(before)": [
      7,
      18
    ],
    "tiu_dma_id(after)": [
      9,
      20
    ],
    "operands": [
      {
        "address": 4296511488,
        "layout": "continuous",
        "memory_type": "<3027x64xf32>",
        "name": "embedding_layer.embedding_layer.vid.weight",
        "reshape": "",
        "slice": "[...]",
        "type": "tensor<3027x64xf32, 4296511488 : i64>"
      },
      {
        "address": 4298039296,
        "layout": "continuous",
        "memory_type": "<256xsi32>",
        "name": "/embedding_layer/Gather_1_output_0_Gather_si32",
        "reshape": "",
        "slice": "[...]",
        "type": "tensor<256xi32, 4298039296 : i64>"
      },
      {}
    ],
    "results": [
      {
        "address": 4297355264,
        "layout": "continuous",
        "memory_type": "<256x64xf32>",
        "name": "/embedding_layer/vid/Gather_output_0_Gather",
        "reshape": "",
        "slice": "[...]",
        "type": "tensor<256x64xf32, 4297355264 : i64>"
      }
    ]
  },
  {
    "file-line": 31,
    "subnet_id": 0,
    "opcode": "tpu.Unsqueeze",
    "tiu_dma_id(before)": [
      9,
      20
    ],
    "tiu_dma_id(after)": [
      9,
      21
    ],
    "operands": [
      {
        "address": 4297355264,
        "layout": "continuous",
        "memory_type": "<256x64xf32>",
        "name": "/embedding_layer/vid/Gather_output_0_Gather",
        "reshape": "",
        "slice": "[...]",
        "type": "tensor<256x64xf32, 4297355264 : i64>"
      }
    ],
    "results": [
      {
        "address": 4297748480,
        "layout": "continuous",
        "memory_type": "<1x256x64xf32>",
        "name": "/fm_layer/inner_product_layer/Unsqueeze_1_output_0_Unsqueeze",
        "reshape": "",
        "slice": "[...]",
        "type": "tensor<1x256x64xf32, 4297748480 : i64>"
      }
    ]
  },
  {
    "file-line": 33,
    "subnet_id": 0,
    "opcode": "tpu.Gather",
    "tiu_dma_id(before)": [
      9,
      21
    ],
    "tiu_dma_id(after)": [
      11,
      23
    ],
    "operands": [
      {
        "address": 4297289728,
        "layout": "continuous",
        "memory_type": "<3x64xf32>",
        "name": "embedding_layer.embedding_layer.sex.weight",
        "reshape": "",
        "slice": "[...]",
        "type": "tensor<3x64xf32, 4297289728 : i64>"
      },
      {
        "address": 4298031104,
        "layout": "continuous",
        "memory_type": "<256xsi32>",
        "name": "/embedding_layer/Gather_2_output_0_Gather_si32",
        "reshape": "",
        "slice": "[...]",
        "type": "tensor<256xi32, 4298031104 : i64>"
      },
      {}
    ],
    "results": [
      {
        "address": 4297355264,
        "layout": "continuous",
        "memory_type": "<256x64xf32>",
        "name": "/embedding_layer/sex/Gather_output_0_Gather",
        "reshape": "",
        "slice": "[...]",
        "type": "tensor<256x64xf32, 4297355264 : i64>"
      }
    ]
  },
  {
    "file-line": 34,
    "subnet_id": 0,
    "opcode": "tpu.Unsqueeze",
    "tiu_dma_id(before)": [
      11,
      23
    ],
    "tiu_dma_id(after)": [
      11,
      24
    ],
    "operands": [
      {
        "address": 4297355264,
        "layout": "continuous",
        "memory_type": "<256x64xf32>",
        "name": "/embedding_layer/sex/Gather_output_0_Gather",
        "reshape": "",
        "slice": "[...]",
        "type": "tensor<256x64xf32, 4297355264 : i64>"
      }
    ],
    "results": [
      {
        "address": 4297814016,
        "layout": "continuous",
        "memory_type": "<1x256x64xf32>",
        "name": "/fm_layer/inner_product_layer/Unsqueeze_2_output_0_Unsqueeze",
        "reshape": "",
        "slice": "[...]",
        "type": "tensor<1x256x64xf32, 4297814016 : i64>"
      }
    ]
  },
  {
    "file-line": 36,
    "subnet_id": 0,
    "opcode": "tpu.Gather",
    "tiu_dma_id(before)": [
      11,
      24
    ],
    "tiu_dma_id(after)": [
      13,
      26
    ],
    "operands": [
      {
        "address": 4297293824,
        "layout": "continuous",
        "memory_type": "<8x64xf32>",
        "name": "embedding_layer.embedding_layer.age.weight",
        "reshape": "",
        "slice": "[...]",
        "type": "tensor<8x64xf32, 4297293824 : i64>"
      },
      {
        "address": 4298022912,
        "layout": "continuous",
        "memory_type": "<256xsi32>",
        "name": "/embedding_layer/Gather_3_output_0_Gather_si32",
        "reshape": "",
        "slice": "[...]",
        "type": "tensor<256xi32, 4298022912 : i64>"
      },
      {}
    ],
    "results": [
      {
        "address": 4297355264,
        "layout": "continuous",
        "memory_type": "<256x64xf32>",
        "name": "/embedding_layer/age/Gather_output_0_Gather",
        "reshape": "",
        "slice": "[...]",
        "type": "tensor<256x64xf32, 4297355264 : i64>"
      }
    ]
  },
  {
    "file-line": 37,
    "subnet_id": 0,
    "opcode": "tpu.Unsqueeze",
    "tiu_dma_id(before)": [
      13,
      26
    ],
    "tiu_dma_id(after)": [
      13,
      27
    ],
    "operands": [
      {
        "address": 4297355264,
        "layout": "continuous",
        "memory_type": "<256x64xf32>",
        "name": "/embedding_layer/age/Gather_output_0_Gather",
        "reshape": "",
        "slice": "[...]",
        "type": "tensor<256x64xf32, 4297355264 : i64>"
      }
    ],
    "results": [
      {
        "address": 4297879552,
        "layout": "continuous",
        "memory_type": "<1x256x64xf32>",
        "name": "/fm_layer/inner_product_layer/Unsqueeze_3_output_0_Unsqueeze",
        "reshape": "",
        "slice": "[...]",
        "type": "tensor<1x256x64xf32, 4297879552 : i64>"
      }
    ]
  },
  {
    "file-line": 39,
    "subnet_id": 0,
    "opcode": "tpu.Gather",
    "tiu_dma_id(before)": [
      13,
      27
    ],
    "tiu_dma_id(after)": [
      15,
      29
    ],
    "operands": [
      {
        "address": 4297297920,
        "layout": "continuous",
        "memory_type": "<22x64xf32>",
        "name": "embedding_layer.embedding_layer.job.weight",
        "reshape": "",
        "slice": "[...]",
        "type": "tensor<22x64xf32, 4297297920 : i64>"
      },
      {
        "address": 4298014720,
        "layout": "continuous",
        "memory_type": "<256xsi32>",
        "name": "/embedding_layer/Gather_4_output_0_Gather_si32",
        "reshape": "",
        "slice": "[...]",
        "type": "tensor<256xi32, 4298014720 : i64>"
      },
      {}
    ],
    "results": [
      {
        "address": 4297355264,
        "layout": "continuous",
        "memory_type": "<256x64xf32>",
        "name": "/embedding_layer/job/Gather_output_0_Gather",
        "reshape": "",
        "slice": "[...]",
        "type": "tensor<256x64xf32, 4297355264 : i64>"
      }
    ]
  },
  {
    "file-line": 40,
    "subnet_id": 0,
    "opcode": "tpu.Unsqueeze",
    "tiu_dma_id(before)": [
      15,
      29
    ],
    "tiu_dma_id(after)": [
      15,
      30
    ],
    "operands": [
      {
        "address": 4297355264,
        "layout": "continuous",
        "memory_type": "<256x64xf32>",
        "name": "/embedding_layer/job/Gather_output_0_Gather",
        "reshape": "",
        "slice": "[...]",
        "type": "tensor<256x64xf32, 4297355264 : i64>"
      }
    ],
    "results": [
      {
        "address": 4297945088,
        "layout": "continuous",
        "memory_type": "<1x256x64xf32>",
        "name": "/fm_layer/inner_product_layer/Unsqueeze_4_output_0_Unsqueeze",
        "reshape": "",
        "slice": "[...]",
        "type": "tensor<1x256x64xf32, 4297945088 : i64>"
      }
    ]
  },
  {
    "file-line": 41,
    "subnet_id": 0,
    "opcode": "tpu.Concat",
    "tiu_dma_id(before)": [
      15,
      30
    ],
    "tiu_dma_id(after)": [
      15,
      30
    ],
    "operands": [
      {
        "address": 4297682944,
        "layout": "continuous",
        "memory_type": "<1x256x64xf32>",
        "name": "/fm_layer/inner_product_layer/Unsqueeze_output_0_Unsqueeze",
        "reshape": "",
        "slice": "[...]",
        "type": "tensor<1x256x64xf32, 4297682944 : i64>"
      },
      {
        "address": 4297748480,
        "layout": "continuous",
        "memory_type": "<1x256x64xf32>",
        "name": "/fm_layer/inner_product_layer/Unsqueeze_1_output_0_Unsqueeze",
        "reshape": "",
        "slice": "[...]",
        "type": "tensor<1x256x64xf32, 4297748480 : i64>"
      },
      {
        "address": 4297814016,
        "layout": "continuous",
        "memory_type": "<1x256x64xf32>",
        "name": "/fm_layer/inner_product_layer/Unsqueeze_2_output_0_Unsqueeze",
        "reshape": "",
        "slice": "[...]",
        "type": "tensor<1x256x64xf32, 4297814016 : i64>"
      },
      {
        "address": 4297879552,
        "layout": "continuous",
        "memory_type": "<1x256x64xf32>",
        "name": "/fm_layer/inner_product_layer/Unsqueeze_3_output_0_Unsqueeze",
        "reshape": "",
        "slice": "[...]",
        "type": "tensor<1x256x64xf32, 4297879552 : i64>"
      },
      {
        "address": 4297945088,
        "layout": "continuous",
        "memory_type": "<1x256x64xf32>",
        "name": "/fm_layer/inner_product_layer/Unsqueeze_4_output_0_Unsqueeze",
        "reshape": "",
        "slice": "[...]",
        "type": "tensor<1x256x64xf32, 4297945088 : i64>"
      }
    ],
    "results": [
      {
        "address": 4297682944,
        "layout": "continuous",
        "memory_type": "<5x256x64xf32>",
        "name": "/fm_layer/inner_product_layer/Concat_output_0_Concat",
        "reshape": "",
        "slice": "[...]",
        "type": "tensor<5x256x64xf32, 4297682944 : i64>"
      }
    ]
  },
  {
    "file-line": 42,
    "subnet_id": 0,
    "opcode": "tpu.Reduce",
    "tiu_dma_id(before)": [
      15,
      30
    ],
    "tiu_dma_id(after)": [
      19,
      38
    ],
    "operands": [
      {
        "address": 4297682944,
        "layout": "continuous",
        "memory_type": "<5x256x64xf32>",
        "name": "/fm_layer/inner_product_layer/Concat_output_0_Concat",
        "reshape": "",
        "slice": "[...]",
        "type": "tensor<5x256x64xf32, 4297682944 : i64>"
      },
      {},
      {}
    ],
    "results": [
      {
        "address": 4297355264,
        "layout": "continuous",
        "memory_type": "<256x64xf32>",
        "name": "/fm_layer/inner_product_layer/ReduceSum_output_0_ReduceSum",
        "reshape": "",
        "slice": "[...]",
        "type": "tensor<256x64xf32, 4297355264 : i64>"
      }
    ]
  },
  {
    "file-line": 44,
    "subnet_id": 0,
    "opcode": "tpu.Gather",
    "tiu_dma_id(before)": [
      19,
      38
    ],
    "tiu_dma_id(after)": [
      21,
      40
    ],
    "operands": [
      {
        "address": 4297306112,
        "layout": "continuous",
        "memory_type": "<6032x1xf32>",
        "name": "fm_layer.lr_layer.embedding_layer.embedding_layer.uid.weight",
        "reshape": "",
        "slice": "[...]",
        "type": "tensor<6032x1xf32, 4297306112 : i64>"
      },
      {
        "address": 4298047488,
        "layout": "continuous",
        "memory_type": "<256xsi32>",
        "name": "/embedding_layer/Gather_output_0_Gather_si32",
        "reshape": "",
        "slice": "[...]",
        "type": "tensor<256xi32, 4298047488 : i64>"
      },
      {}
    ],
    "results": [
      {
        "address": 4298010624,
        "layout": "continuous",
        "memory_type": "<256x1xf32>",
        "name": "/fm_layer/lr_layer/embedding_layer/uid/Gather_output_0_Gather",
        "reshape": "",
        "slice": "[...]",
        "type": "tensor<256x1xf32, 4298010624 : i64>"
      }
    ]
  },
  {
    "file-line": 45,
    "subnet_id": 0,
    "opcode": "tpu.Unsqueeze",
    "tiu_dma_id(before)": [
      21,
      40
    ],
    "tiu_dma_id(after)": [
      21,
      41
    ],
    "operands": [
      {
        "address": 4298010624,
        "layout": "continuous",
        "memory_type": "<256x1xf32>",
        "name": "/fm_layer/lr_layer/embedding_layer/uid/Gather_output_0_Gather",
        "reshape": "",
        "slice": "[...]",
        "type": "tensor<256x1xf32, 4298010624 : i64>"
      }
    ],
    "results": [
      {
        "address": 4297420800,
        "layout": "continuous",
        "memory_type": "<1x256x1xf32>",
        "name": "/fm_layer/lr_layer/Unsqueeze_output_0_Unsqueeze",
        "reshape": "",
        "slice": "[...]",
        "type": "tensor<1x256x1xf32, 4297420800 : i64>"
      }
    ]
  },
  {
    "file-line": 47,
    "subnet_id": 0,
    "opcode": "tpu.Gather",
    "tiu_dma_id(before)": [
      21,
      41
    ],
    "tiu_dma_id(after)": [
      23,
      43
    ],
    "operands": [
      {
        "address": 4297330688,
        "layout": "continuous",
        "memory_type": "<3027x1xf32>",
        "name": "fm_layer.lr_layer.embedding_layer.embedding_layer.vid.weight",
        "reshape": "",
        "slice": "[...]",
        "type": "tensor<3027x1xf32, 4297330688 : i64>"
      },
      {
        "address": 4298039296,
        "layout": "continuous",
        "memory_type": "<256xsi32>",
        "name": "/embedding_layer/Gather_1_output_0_Gather_si32",
        "reshape": "",
        "slice": "[...]",
        "type": "tensor<256xi32, 4298039296 : i64>"
      },
      {}
    ],
    "results": [
      {
        "address": 4298010624,
        "layout": "continuous",
        "memory_type": "<256x1xf32>",
        "name": "/fm_layer/lr_layer/embedding_layer/vid/Gather_output_0_Gather",
        "reshape": "",
        "slice": "[...]",
        "type": "tensor<256x1xf32, 4298010624 : i64>"
      }
    ]
  },
  {
    "file-line": 48,
    "subnet_id": 0,
    "opcode": "tpu.Unsqueeze",
    "tiu_dma_id(before)": [
      23,
      43
    ],
    "tiu_dma_id(after)": [
      23,
      44
    ],
    "operands": [
      {
        "address": 4298010624,
        "layout": "continuous",
        "memory_type": "<256x1xf32>",
        "name": "/fm_layer/lr_layer/embedding_layer/vid/Gather_output_0_Gather",
        "reshape": "",
        "slice": "[...]",
        "type": "tensor<256x1xf32, 4298010624 : i64>"
      }
    ],
    "results": [
      {
        "address": 4297421824,
        "layout": "continuous",
        "memory_type": "<1x256x1xf32>",
        "name": "/fm_layer/lr_layer/Unsqueeze_1_output_0_Unsqueeze",
        "reshape": "",
        "slice": "[...]",
        "type": "tensor<1x256x1xf32, 4297421824 : i64>"
      }
    ]
  },
  {
    "file-line": 50,
    "subnet_id": 0,
    "opcode": "tpu.Gather",
    "tiu_dma_id(before)": [
      23,
      44
    ],
    "tiu_dma_id(after)": [
      25,
      46
    ],
    "operands": [
      {
        "address": 4297342976,
        "layout": "continuous",
        "memory_type": "<3x1xf32>",
        "name": "fm_layer.lr_layer.embedding_layer.embedding_layer.sex.weight",
        "reshape": "",
        "slice": "[...]",
        "type": "tensor<3x1xf32, 4297342976 : i64>"
      },
      {
        "address": 4298031104,
        "layout": "continuous",
        "memory_type": "<256xsi32>",
        "name": "/embedding_layer/Gather_2_output_0_Gather_si32",
        "reshape": "",
        "slice": "[...]",
        "type": "tensor<256xi32, 4298031104 : i64>"
      },
      {}
    ],
    "results": [
      {
        "address": 4298010624,
        "layout": "continuous",
        "memory_type": "<256x1xf32>",
        "name": "/fm_layer/lr_layer/embedding_layer/sex/Gather_output_0_Gather",
        "reshape": "",
        "slice": "[...]",
        "type": "tensor<256x1xf32, 4298010624 : i64>"
      }
    ]
  },
  {
    "file-line": 51,
    "subnet_id": 0,
    "opcode": "tpu.Unsqueeze",
    "tiu_dma_id(before)": [
      25,
      46
    ],
    "tiu_dma_id(after)": [
      25,
      47
    ],
    "operands": [
      {
        "address": 4298010624,
        "layout": "continuous",
        "memory_type": "<256x1xf32>",
        "name": "/fm_layer/lr_layer/embedding_layer/sex/Gather_output_0_Gather",
        "reshape": "",
        "slice": "[...]",
        "type": "tensor<256x1xf32, 4298010624 : i64>"
      }
    ],
    "results": [
      {
        "address": 4297422848,
        "layout": "continuous",
        "memory_type": "<1x256x1xf32>",
        "name": "/fm_layer/lr_layer/Unsqueeze_2_output_0_Unsqueeze",
        "reshape": "",
        "slice": "[...]",
        "type": "tensor<1x256x1xf32, 4297422848 : i64>"
      }
    ]
  },
  {
    "file-line": 53,
    "subnet_id": 0,
    "opcode": "tpu.Gather",
    "tiu_dma_id(before)": [
      25,
      47
    ],
    "tiu_dma_id(after)": [
      27,
      49
    ],
    "operands": [
      {
        "address": 4297347072,
        "layout": "continuous",
        "memory_type": "<8x1xf32>",
        "name": "fm_layer.lr_layer.embedding_layer.embedding_layer.age.weight",
        "reshape": "",
        "slice": "[...]",
        "type": "tensor<8x1xf32, 4297347072 : i64>"
      },
      {
        "address": 4298022912,
        "layout": "continuous",
        "memory_type": "<256xsi32>",
        "name": "/embedding_layer/Gather_3_output_0_Gather_si32",
        "reshape": "",
        "slice": "[...]",
        "type": "tensor<256xi32, 4298022912 : i64>"
      },
      {}
    ],
    "results": [
      {
        "address": 4298010624,
        "layout": "continuous",
        "memory_type": "<256x1xf32>",
        "name": "/fm_layer/lr_layer/embedding_layer/age/Gather_output_0_Gather",
        "reshape": "",
        "slice": "[...]",
        "type": "tensor<256x1xf32, 4298010624 : i64>"
      }
    ]
  },
  {
    "file-line": 54,
    "subnet_id": 0,
    "opcode": "tpu.Unsqueeze",
    "tiu_dma_id(before)": [
      27,
      49
    ],
    "tiu_dma_id(after)": [
      27,
      50
    ],
    "operands": [
      {
        "address": 4298010624,
        "layout": "continuous",
        "memory_type": "<256x1xf32>",
        "name": "/fm_layer/lr_layer/embedding_layer/age/Gather_output_0_Gather",
        "reshape": "",
        "slice": "[...]",
        "type": "tensor<256x1xf32, 4298010624 : i64>"
      }
    ],
    "results": [
      {
        "address": 4297423872,
        "layout": "continuous",
        "memory_type": "<1x256x1xf32>",
        "name": "/fm_layer/lr_layer/Unsqueeze_3_output_0_Unsqueeze",
        "reshape": "",
        "slice": "[...]",
        "type": "tensor<1x256x1xf32, 4297423872 : i64>"
      }
    ]
  },
  {
    "file-line": 56,
    "subnet_id": 0,
    "opcode": "tpu.Gather",
    "tiu_dma_id(before)": [
      27,
      50
    ],
    "tiu_dma_id(after)": [
      29,
      52
    ],
    "operands": [
      {
        "address": 4297351168,
        "layout": "continuous",
        "memory_type": "<22x1xf32>",
        "name": "fm_layer.lr_layer.embedding_layer.embedding_layer.job.weight",
        "reshape": "",
        "slice": "[...]",
        "type": "tensor<22x1xf32, 4297351168 : i64>"
      },
      {
        "address": 4298014720,
        "layout": "continuous",
        "memory_type": "<256xsi32>",
        "name": "/embedding_layer/Gather_4_output_0_Gather_si32",
        "reshape": "",
        "slice": "[...]",
        "type": "tensor<256xi32, 4298014720 : i64>"
      },
      {}
    ],
    "results": [
      {
        "address": 4298010624,
        "layout": "continuous",
        "memory_type": "<256x1xf32>",
        "name": "/fm_layer/lr_layer/embedding_layer/job/Gather_output_0_Gather",
        "reshape": "",
        "slice": "[...]",
        "type": "tensor<256x1xf32, 4298010624 : i64>"
      }
    ]
  },
  {
    "file-line": 57,
    "subnet_id": 0,
    "opcode": "tpu.Unsqueeze",
    "tiu_dma_id(before)": [
      29,
      52
    ],
    "tiu_dma_id(after)": [
      29,
      53
    ],
    "operands": [
      {
        "address": 4298010624,
        "layout": "continuous",
        "memory_type": "<256x1xf32>",
        "name": "/fm_layer/lr_layer/embedding_layer/job/Gather_output_0_Gather",
        "reshape": "",
        "slice": "[...]",
        "type": "tensor<256x1xf32, 4298010624 : i64>"
      }
    ],
    "results": [
      {
        "address": 4297424896,
        "layout": "continuous",
        "memory_type": "<1x256x1xf32>",
        "name": "/fm_layer/lr_layer/Unsqueeze_4_output_0_Unsqueeze",
        "reshape": "",
        "slice": "[...]",
        "type": "tensor<1x256x1xf32, 4297424896 : i64>"
      }
    ]
  },
  {
    "file-line": 58,
    "subnet_id": 0,
    "opcode": "tpu.Concat",
    "tiu_dma_id(before)": [
      29,
      53
    ],
    "tiu_dma_id(after)": [
      29,
      53
    ],
    "operands": [
      {
        "address": 4297420800,
        "layout": "continuous",
        "memory_type": "<1x256x1xf32>",
        "name": "/fm_layer/lr_layer/Unsqueeze_output_0_Unsqueeze",
        "reshape": "",
        "slice": "[...]",
        "type": "tensor<1x256x1xf32, 4297420800 : i64>"
      },
      {
        "address": 4297421824,
        "layout": "continuous",
        "memory_type": "<1x256x1xf32>",
        "name": "/fm_layer/lr_layer/Unsqueeze_1_output_0_Unsqueeze",
        "reshape": "",
        "slice": "[...]",
        "type": "tensor<1x256x1xf32, 4297421824 : i64>"
      },
      {
        "address": 4297422848,
        "layout": "continuous",
        "memory_type": "<1x256x1xf32>",
        "name": "/fm_layer/lr_layer/Unsqueeze_2_output_0_Unsqueeze",
        "reshape": "",
        "slice": "[...]",
        "type": "tensor<1x256x1xf32, 4297422848 : i64>"
      },
      {
        "address": 4297423872,
        "layout": "continuous",
        "memory_type": "<1x256x1xf32>",
        "name": "/fm_layer/lr_layer/Unsqueeze_3_output_0_Unsqueeze",
        "reshape": "",
        "slice": "[...]",
        "type": "tensor<1x256x1xf32, 4297423872 : i64>"
      },
      {
        "address": 4297424896,
        "layout": "continuous",
        "memory_type": "<1x256x1xf32>",
        "name": "/fm_layer/lr_layer/Unsqueeze_4_output_0_Unsqueeze",
        "reshape": "",
        "slice": "[...]",
        "type": "tensor<1x256x1xf32, 4297424896 : i64>"
      }
    ],
    "results": [
      {
        "address": 4297420800,
        "layout": "continuous",
        "memory_type": "<5x256x1xf32>",
        "name": "/fm_layer/lr_layer/Concat_output_0_Concat",
        "reshape": "",
        "slice": "[...]",
        "type": "tensor<5x256x1xf32, 4297420800 : i64>"
      }
    ]
  },
  {
    "file-line": 59,
    "subnet_id": 0,
    "opcode": "tpu.Reduce",
    "tiu_dma_id(before)": [
      29,
      53
    ],
    "tiu_dma_id(after)": [
      30,
      55
    ],
    "operands": [
      {
        "address": 4297420800,
        "layout": "continuous",
        "memory_type": "<5x256x1xf32>",
        "name": "/fm_layer/lr_layer/Concat_output_0_Concat",
        "reshape": "",
        "slice": "[...]",
        "type": "tensor<5x256x1xf32, 4297420800 : i64>"
      },
      {},
      {}
    ],
    "results": [
      {
        "address": 4298010624,
        "layout": "continuous",
        "memory_type": "<256x1xf32>",
        "name": "/fm_layer/lr_layer/ReduceSum_output_0_ReduceSum",
        "reshape": "",
        "slice": "[...]",
        "type": "tensor<256x1xf32, 4298010624 : i64>"
      }
    ]
  },
  {
    "file-line": 60,
    "subnet_id": 0,
    "opcode": "tpu.AddConst",
    "tiu_dma_id(before)": [
      30,
      55
    ],
    "tiu_dma_id(after)": [
      31,
      57
    ],
    "operands": [
      {
        "address": 4298010624,
        "layout": "continuous",
        "memory_type": "<256x1xf32>",
        "name": "/fm_layer/lr_layer/ReduceSum_output_0_ReduceSum",
        "reshape": "",
        "slice": "[...]",
        "type": "tensor<256x1xf32, 4298010624 : i64>"
      }
    ],
    "results": [
      {
        "address": 4298084352,
        "layout": "continuous",
        "memory_type": "<256x1xf32>",
        "name": "/fm_layer/lr_layer/Add_output_0_Add",
        "reshape": "",
        "slice": "[...]",
        "type": "tensor<256x1xf32, 4298084352 : i64>"
      }
    ]
  },
  {
    "file-line": 61,
    "subnet_id": 0,
    "opcode": "tpu.Mul",
    "tiu_dma_id(before)": [
      31,
      57
    ],
    "tiu_dma_id(after)": [
      32,
      60
    ],
    "operands": [
      {
        "address": 4297355264,
        "layout": "continuous",
        "memory_type": "<256x64xf32>",
        "name": "/fm_layer/inner_product_layer/ReduceSum_output_0_ReduceSum",
        "reshape": "",
        "slice": "[...]",
        "type": "tensor<256x64xf32, 4297355264 : i64>"
      },
      {
        "address": 4297355264,
        "layout": "continuous",
        "memory_type": "<256x64xf32>",
        "name": "/fm_layer/inner_product_layer/ReduceSum_output_0_ReduceSum",
        "reshape": "",
        "slice": "[...]",
        "type": "tensor<256x64xf32, 4297355264 : i64>"
      }
    ],
    "results": [
      {
        "address": 4298010624,
        "layout": "continuous",
        "memory_type": "<256x64xf32>",
        "name": "/fm_layer/inner_product_layer/Pow_output_0_Pow",
        "reshape": "",
        "slice": "[...]",
        "type": "tensor<256x64xf32, 4298010624 : i64>"
      }
    ]
  },
  {
    "file-line": 62,
    "subnet_id": 0,
    "opcode": "tpu.Mul",
    "tiu_dma_id(before)": [
      32,
      60
    ],
    "tiu_dma_id(after)": [
      33,
      63
    ],
    "operands": [
      {
        "address": 4297682944,
        "layout": "continuous",
        "memory_type": "<5x256x64xf32>",
        "name": "/fm_layer/inner_product_layer/Concat_output_0_Concat",
        "reshape": "",
        "slice": "[...]",
        "type": "tensor<5x256x64xf32, 4297682944 : i64>"
      },
      {
        "address": 4297682944,
        "layout": "continuous",
        "memory_type": "<5x256x64xf32>",
        "name": "/fm_layer/inner_product_layer/Concat_output_0_Concat",
        "reshape": "",
        "slice": "[...]",
        "type": "tensor<5x256x64xf32, 4297682944 : i64>"
      }
    ],
    "results": [
      {
        "address": 4297355264,
        "layout": "continuous",
        "memory_type": "<5x256x64xf32>",
        "name": "/fm_layer/inner_product_layer/Pow_1_output_0_Pow",
        "reshape": "",
        "slice": "[...]",
        "type": "tensor<5x256x64xf32, 4297355264 : i64>"
      }
    ]
  },
  {
    "file-line": 63,
    "subnet_id": 0,
    "opcode": "tpu.Reduce",
    "tiu_dma_id(before)": [
      33,
      63
    ],
    "tiu_dma_id(after)": [
      37,
      71
    ],
    "operands": [
      {
        "address": 4297355264,
        "layout": "continuous",
        "memory_type": "<5x256x64xf32>",
        "name": "/fm_layer/inner_product_layer/Pow_1_output_0_Pow",
        "reshape": "",
        "slice": "[...]",
        "type": "tensor<5x256x64xf32, 4297355264 : i64>"
      },
      {},
      {}
    ],
    "results": [
      {
        "address": 4297682944,
        "layout": "continuous",
        "memory_type": "<256x64xf32>",
        "name": "/fm_layer/inner_product_layer/ReduceSum_1_output_0_ReduceSum",
        "reshape": "",
        "slice": "[...]",
        "type": "tensor<256x64xf32, 4297682944 : i64>"
      }
    ]
  },
  {
    "file-line": 64,
    "subnet_id": 0,
    "opcode": "tpu.Sub",
    "tiu_dma_id(before)": [
      37,
      71
    ],
    "tiu_dma_id(after)": [
      38,
      74
    ],
    "operands": [
      {
        "address": 4298010624,
        "layout": "continuous",
        "memory_type": "<256x64xf32>",
        "name": "/fm_layer/inner_product_layer/Pow_output_0_Pow",
        "reshape": "",
        "slice": "[...]",
        "type": "tensor<256x64xf32, 4298010624 : i64>"
      },
      {
        "address": 4297682944,
        "layout": "continuous",
        "memory_type": "<256x64xf32>",
        "name": "/fm_layer/inner_product_layer/ReduceSum_1_output_0_ReduceSum",
        "reshape": "",
        "slice": "[...]",
        "type": "tensor<256x64xf32, 4297682944 : i64>"
      }
    ],
    "results": [
      {
        "address": 4297420800,
        "layout": "continuous",
        "memory_type": "<256x64xf32>",
        "name": "/fm_layer/inner_product_layer/Sub_output_0_Sub",
        "reshape": "",
        "slice": "[...]",
        "type": "tensor<256x64xf32, 4297420800 : i64>"
      }
    ]
  },
  {
    "file-line": 65,
    "subnet_id": 0,
    "opcode": "tpu.MulConst",
    "tiu_dma_id(before)": [
      38,
      74
    ],
    "tiu_dma_id(after)": [
      39,
      76
    ],
    "operands": [
      {
        "address": 4297420800,
        "layout": "continuous",
        "memory_type": "<256x64xf32>",
        "name": "/fm_layer/inner_product_layer/Sub_output_0_Sub",
        "reshape": "",
        "slice": "[...]",
        "type": "tensor<256x64xf32, 4297420800 : i64>"
      }
    ],
    "results": [
      {
        "address": 4297355264,
        "layout": "continuous",
        "memory_type": "<256x64xf32>",
        "name": "/fm_layer/inner_product_layer/Mul_output_0_Mul",
        "reshape": "",
        "slice": "[...]",
        "type": "tensor<256x64xf32, 4297355264 : i64>"
      }
    ]
  },
  {
    "file-line": 66,
    "subnet_id": 0,
    "opcode": "tpu.Reduce",
    "tiu_dma_id(before)": [
      39,
      76
    ],
    "tiu_dma_id(after)": [
      41,
      78
    ],
    "operands": [
      {
        "address": 4297355264,
        "layout": "continuous",
        "memory_type": "<256x64xf32>",
        "name": "/fm_layer/inner_product_layer/Mul_output_0_Mul",
        "reshape": "",
        "slice": "[...]",
        "type": "tensor<256x64xf32, 4297355264 : i64>"
      },
      {},
      {}
    ],
    "results": [
      {
        "address": 4297420800,
        "layout": "continuous",
        "memory_type": "<256xf32>",
        "name": "/fm_layer/inner_product_layer/ReduceSum_2_output_0_ReduceSum",
        "reshape": "",
        "slice": "[...]",
        "type": "tensor<256xf32, 4297420800 : i64>"
      }
    ]
  },
  {
    "file-line": 67,
    "subnet_id": 0,
    "opcode": "tpu.Reshape",
    "tiu_dma_id(before)": [
      41,
      78
    ],
    "tiu_dma_id(after)": [
      41,
      78
    ],
    "operands": [
      {
        "address": 4297420800,
        "layout": "continuous",
        "memory_type": "<256xf32>",
        "name": "/fm_layer/inner_product_layer/ReduceSum_2_output_0_ReduceSum",
        "reshape": "",
        "slice": "[...]",
        "type": "tensor<256xf32, 4297420800 : i64>"
      }
    ],
    "results": [
      {
        "address": 4297420800,
        "layout": "continuous",
        "memory_type": "<256x1xf32>",
        "name": "/fm_layer/inner_product_layer/Reshape_output_0_Reshape",
        "reshape": "",
        "slice": "[...]",
        "type": "tensor<256x1xf32, 4297420800 : i64>"
      }
    ]
  },
  {
    "file-line": 68,
    "subnet_id": 0,
    "opcode": "tpu.Add",
    "tiu_dma_id(before)": [
      41,
      78
    ],
    "tiu_dma_id(after)": [
      42,
      81
    ],
    "operands": [
      {
        "address": 4298084352,
        "layout": "continuous",
        "memory_type": "<256x1xf32>",
        "name": "/fm_layer/lr_layer/Add_output_0_Add",
        "reshape": "",
        "slice": "[...]",
        "type": "tensor<256x1xf32, 4298084352 : i64>"
      },
      {
        "address": 4297420800,
        "layout": "continuous",
        "memory_type": "<256x1xf32>",
        "name": "/fm_layer/inner_product_layer/Reshape_output_0_Reshape",
        "reshape": "",
        "slice": "[...]",
        "type": "tensor<256x1xf32, 4297420800 : i64>"
      }
    ],
    "results": [
      {
        "address": 4297359360,
        "layout": "continuous",
        "memory_type": "<256x1xf32>",
        "name": "/fm_layer/Add_output_0_Add",
        "reshape": "",
        "slice": "[...]",
        "type": "tensor<256x1xf32, 4297359360 : i64>"
      }
    ]
  },
  {
    "file-line": 69,
    "subnet_id": 0,
    "opcode": "tpu.Active",
    "tiu_dma_id(before)": [
      42,
      81
    ],
    "tiu_dma_id(after)": [
      56,
      83
    ],
    "operands": [
      {
        "address": 4297359360,
        "layout": "continuous",
        "memory_type": "<256x1xf32>",
        "name": "/fm_layer/Add_output_0_Add",
        "reshape": "",
        "slice": "[...]",
        "type": "tensor<256x1xf32, 4297359360 : i64>"
      }
    ],
    "results": [
      {
        "address": 4297355264,
        "layout": "continuous",
        "memory_type": "<256x1xf32>",
        "name": "output_Sigmoid",
        "reshape": "",
        "slice": "[...]",
        "type": "tensor<256x1xf32, 4297355264 : i64>"
      }
    ]
  }
]