[
  {
    "file-line": 11,
    "subnet_id": 0,
    "opcode": "tpu.Slice",
    "tiu_dma_id(before)": [
      0,
      0
    ],
    "tiu_dma_id(after)": [
      0,
      1
    ],
    "operands": [
      {
        "address": 4301033472,
        "layout": "continuous",
        "memory_type": "<256x5xf32>",
        "name": "input",
        "reshape": "",
        "slice": "[...]",
        "type": "tensor<256x5xf32, 4301033472 : i64>"
      },
      {},
      {},
      {},
      {}
    ],
    "results": [
      {
        "address": 4301041664,
        "layout": "continuous",
        "memory_type": "<256x1xf32>",
        "name": "/embedding_layer/Gather_output_0_Slice",
        "reshape": "",
        "slice": "[...]",
        "type": "tensor<256x1xf32, 4301041664 : i64>"
      }
    ]
  },
  {
    "file-line": 12,
    "subnet_id": 0,
    "opcode": "tpu.Reshape",
    "tiu_dma_id(before)": [
      0,
      1
    ],
    "tiu_dma_id(after)": [
      0,
      1
    ],
    "operands": [
      {
        "address": 4301041664,
        "layout": "continuous",
        "memory_type": "<256x1xf32>",
        "name": "/embedding_layer/Gather_output_0_Slice",
        "reshape": "",
        "slice": "[...]",
        "type": "tensor<256x1xf32, 4301041664 : i64>"
      }
    ],
    "results": [
      {
        "address": 4301041664,
        "layout": "continuous",
        "memory_type": "<256xf32>",
        "name": "/embedding_layer/Gather_output_0_Gather",
        "reshape": "",
        "slice": "[...]",
        "type": "tensor<256xf32, 4301041664 : i64>"
      }
    ]
  },
  {
    "file-line": 13,
    "subnet_id": 0,
    "opcode": "tpu.Cast",
    "tiu_dma_id(before)": [
      0,
      1
    ],
    "tiu_dma_id(after)": [
      1,
      3
    ],
    "operands": [
      {
        "address": 4301041664,
        "layout": "continuous",
        "memory_type": "<256xf32>",
        "name": "/embedding_layer/Gather_output_0_Gather",
        "reshape": "",
        "slice": "[...]",
        "type": "tensor<256xf32, 4301041664 : i64>"
      }
    ],
    "results": [
      {
        "address": 4301045760,
        "layout": "continuous",
        "memory_type": "<256xsi32>",
        "name": "/embedding_layer/Gather_output_0_Gather_si32",
        "reshape": "",
        "slice": "[...]",
        "type": "tensor<256xi32, 4301045760 : i64>"
      }
    ]
  },
  {
    "file-line": 14,
    "subnet_id": 0,
    "opcode": "tpu.Slice",
    "tiu_dma_id(before)": [
      1,
      3
    ],
    "tiu_dma_id(after)": [
      1,
      4
    ],
    "operands": [
      {
        "address": 4301033472,
        "layout": "continuous",
        "memory_type": "<256x5xf32>",
        "name": "input",
        "reshape": "",
        "slice": "[...]",
        "type": "tensor<256x5xf32, 4301033472 : i64>"
      },
      {},
      {},
      {},
      {}
    ],
    "results": [
      {
        "address": 4301041664,
        "layout": "continuous",
        "memory_type": "<256x1xf32>",
        "name": "/embedding_layer/Gather_1_output_0_Slice",
        "reshape": "",
        "slice": "[...]",
        "type": "tensor<256x1xf32, 4301041664 : i64>"
      }
    ]
  },
  {
    "file-line": 15,
    "subnet_id": 0,
    "opcode": "tpu.Reshape",
    "tiu_dma_id(before)": [
      1,
      4
    ],
    "tiu_dma_id(after)": [
      1,
      4
    ],
    "operands": [
      {
        "address": 4301041664,
        "layout": "continuous",
        "memory_type": "<256x1xf32>",
        "name": "/embedding_layer/Gather_1_output_0_Slice",
        "reshape": "",
        "slice": "[...]",
        "type": "tensor<256x1xf32, 4301041664 : i64>"
      }
    ],
    "results": [
      {
        "address": 4301041664,
        "layout": "continuous",
        "memory_type": "<256xf32>",
        "name": "/embedding_layer/Gather_1_output_0_Gather",
        "reshape": "",
        "slice": "[...]",
        "type": "tensor<256xf32, 4301041664 : i64>"
      }
    ]
  },
  {
    "file-line": 16,
    "subnet_id": 0,
    "opcode": "tpu.Cast",
    "tiu_dma_id(before)": [
      1,
      4
    ],
    "tiu_dma_id(after)": [
      2,
      6
    ],
    "operands": [
      {
        "address": 4301041664,
        "layout": "continuous",
        "memory_type": "<256xf32>",
        "name": "/embedding_layer/Gather_1_output_0_Gather",
        "reshape": "",
        "slice": "[...]",
        "type": "tensor<256xf32, 4301041664 : i64>"
      }
    ],
    "results": [
      {
        "address": 4301111296,
        "layout": "continuous",
        "memory_type": "<256xsi32>",
        "name": "/embedding_layer/Gather_1_output_0_Gather_si32",
        "reshape": "",
        "slice": "[...]",
        "type": "tensor<256xi32, 4301111296 : i64>"
      }
    ]
  },
  {
    "file-line": 17,
    "subnet_id": 0,
    "opcode": "tpu.Slice",
    "tiu_dma_id(before)": [
      2,
      6
    ],
    "tiu_dma_id(after)": [
      2,
      7
    ],
    "operands": [
      {
        "address": 4301033472,
        "layout": "continuous",
        "memory_type": "<256x5xf32>",
        "name": "input",
        "reshape": "",
        "slice": "[...]",
        "type": "tensor<256x5xf32, 4301033472 : i64>"
      },
      {},
      {},
      {},
      {}
    ],
    "results": [
      {
        "address": 4301041664,
        "layout": "continuous",
        "memory_type": "<256x1xf32>",
        "name": "/embedding_layer/Gather_2_output_0_Slice",
        "reshape": "",
        "slice": "[...]",
        "type": "tensor<256x1xf32, 4301041664 : i64>"
      }
    ]
  },
  {
    "file-line": 18,
    "subnet_id": 0,
    "opcode": "tpu.Reshape",
    "tiu_dma_id(before)": [
      2,
      7
    ],
    "tiu_dma_id(after)": [
      2,
      7
    ],
    "operands": [
      {
        "address": 4301041664,
        "layout": "continuous",
        "memory_type": "<256x1xf32>",
        "name": "/embedding_layer/Gather_2_output_0_Slice",
        "reshape": "",
        "slice": "[...]",
        "type": "tensor<256x1xf32, 4301041664 : i64>"
      }
    ],
    "results": [
      {
        "address": 4301041664,
        "layout": "continuous",
        "memory_type": "<256xf32>",
        "name": "/embedding_layer/Gather_2_output_0_Gather",
        "reshape": "",
        "slice": "[...]",
        "type": "tensor<256xf32, 4301041664 : i64>"
      }
    ]
  },
  {
    "file-line": 19,
    "subnet_id": 0,
    "opcode": "tpu.Cast",
    "tiu_dma_id(before)": [
      2,
      7
    ],
    "tiu_dma_id(after)": [
      3,
      9
    ],
    "operands": [
      {
        "address": 4301041664,
        "layout": "continuous",
        "memory_type": "<256xf32>",
        "name": "/embedding_layer/Gather_2_output_0_Gather",
        "reshape": "",
        "slice": "[...]",
        "type": "tensor<256xf32, 4301041664 : i64>"
      }
    ],
    "results": [
      {
        "address": 4301176832,
        "layout": "continuous",
        "memory_type": "<256xsi32>",
        "name": "/embedding_layer/Gather_2_output_0_Gather_si32",
        "reshape": "",
        "slice": "[...]",
        "type": "tensor<256xi32, 4301176832 : i64>"
      }
    ]
  },
  {
    "file-line": 20,
    "subnet_id": 0,
    "opcode": "tpu.Slice",
    "tiu_dma_id(before)": [
      3,
      9
    ],
    "tiu_dma_id(after)": [
      3,
      10
    ],
    "operands": [
      {
        "address": 4301033472,
        "layout": "continuous",
        "memory_type": "<256x5xf32>",
        "name": "input",
        "reshape": "",
        "slice": "[...]",
        "type": "tensor<256x5xf32, 4301033472 : i64>"
      },
      {},
      {},
      {},
      {}
    ],
    "results": [
      {
        "address": 4301041664,
        "layout": "continuous",
        "memory_type": "<256x1xf32>",
        "name": "/embedding_layer/Gather_3_output_0_Slice",
        "reshape": "",
        "slice": "[...]",
        "type": "tensor<256x1xf32, 4301041664 : i64>"
      }
    ]
  },
  {
    "file-line": 21,
    "subnet_id": 0,
    "opcode": "tpu.Reshape",
    "tiu_dma_id(before)": [
      3,
      10
    ],
    "tiu_dma_id(after)": [
      3,
      10
    ],
    "operands": [
      {
        "address": 4301041664,
        "layout": "continuous",
        "memory_type": "<256x1xf32>",
        "name": "/embedding_layer/Gather_3_output_0_Slice",
        "reshape": "",
        "slice": "[...]",
        "type": "tensor<256x1xf32, 4301041664 : i64>"
      }
    ],
    "results": [
      {
        "address": 4301041664,
        "layout": "continuous",
        "memory_type": "<256xf32>",
        "name": "/embedding_layer/Gather_3_output_0_Gather",
        "reshape": "",
        "slice": "[...]",
        "type": "tensor<256xf32, 4301041664 : i64>"
      }
    ]
  },
  {
    "file-line": 22,
    "subnet_id": 0,
    "opcode": "tpu.Cast",
    "tiu_dma_id(before)": [
      3,
      10
    ],
    "tiu_dma_id(after)": [
      4,
      12
    ],
    "operands": [
      {
        "address": 4301041664,
        "layout": "continuous",
        "memory_type": "<256xf32>",
        "name": "/embedding_layer/Gather_3_output_0_Gather",
        "reshape": "",
        "slice": "[...]",
        "type": "tensor<256xf32, 4301041664 : i64>"
      }
    ],
    "results": [
      {
        "address": 4301242368,
        "layout": "continuous",
        "memory_type": "<256xsi32>",
        "name": "/embedding_layer/Gather_3_output_0_Gather_si32",
        "reshape": "",
        "slice": "[...]",
        "type": "tensor<256xi32, 4301242368 : i64>"
      }
    ]
  },
  {
    "file-line": 23,
    "subnet_id": 0,
    "opcode": "tpu.Slice",
    "tiu_dma_id(before)": [
      4,
      12
    ],
    "tiu_dma_id(after)": [
      4,
      13
    ],
    "operands": [
      {
        "address": 4301033472,
        "layout": "continuous",
        "memory_type": "<256x5xf32>",
        "name": "input",
        "reshape": "",
        "slice": "[...]",
        "type": "tensor<256x5xf32, 4301033472 : i64>"
      },
      {},
      {},
      {},
      {}
    ],
    "results": [
      {
        "address": 4301041664,
        "layout": "continuous",
        "memory_type": "<256x1xf32>",
        "name": "/embedding_layer/Gather_4_output_0_Slice",
        "reshape": "",
        "slice": "[...]",
        "type": "tensor<256x1xf32, 4301041664 : i64>"
      }
    ]
  },
  {
    "file-line": 24,
    "subnet_id": 0,
    "opcode": "tpu.Reshape",
    "tiu_dma_id(before)": [
      4,
      13
    ],
    "tiu_dma_id(after)": [
      4,
      13
    ],
    "operands": [
      {
        "address": 4301041664,
        "layout": "continuous",
        "memory_type": "<256x1xf32>",
        "name": "/embedding_layer/Gather_4_output_0_Slice",
        "reshape": "",
        "slice": "[...]",
        "type": "tensor<256x1xf32, 4301041664 : i64>"
      }
    ],
    "results": [
      {
        "address": 4301041664,
        "layout": "continuous",
        "memory_type": "<256xf32>",
        "name": "/embedding_layer/Gather_4_output_0_Gather",
        "reshape": "",
        "slice": "[...]",
        "type": "tensor<256xf32, 4301041664 : i64>"
      }
    ]
  },
  {
    "file-line": 25,
    "subnet_id": 0,
    "opcode": "tpu.Cast",
    "tiu_dma_id(before)": [
      4,
      13
    ],
    "tiu_dma_id(after)": [
      5,
      15
    ],
    "operands": [
      {
        "address": 4301041664,
        "layout": "continuous",
        "memory_type": "<256xf32>",
        "name": "/embedding_layer/Gather_4_output_0_Gather",
        "reshape": "",
        "slice": "[...]",
        "type": "tensor<256xf32, 4301041664 : i64>"
      }
    ],
    "results": [
      {
        "address": 4301307904,
        "layout": "continuous",
        "memory_type": "<256xsi32>",
        "name": "/embedding_layer/Gather_4_output_0_Gather_si32",
        "reshape": "",
        "slice": "[...]",
        "type": "tensor<256xi32, 4301307904 : i64>"
      }
    ]
  },
  {
    "file-line": 27,
    "subnet_id": 0,
    "opcode": "tpu.Gather",
    "tiu_dma_id(before)": [
      5,
      15
    ],
    "tiu_dma_id(after)": [
      7,
      17
    ],
    "operands": [
      {
        "address": 4294967296,
        "layout": "continuous",
        "memory_type": "<6032x1xf32>",
        "name": "lr_layer.embedding_layer.embedding_layer.uid.weight",
        "reshape": "",
        "slice": "[...]",
        "type": "tensor<6032x1xf32, 4294967296 : i64>"
      },
      {
        "address": 4301045760,
        "layout": "continuous",
        "memory_type": "<256xsi32>",
        "name": "/embedding_layer/Gather_output_0_Gather_si32",
        "reshape": "",
        "slice": "[...]",
        "type": "tensor<256xi32, 4301045760 : i64>"
      },
      {}
    ],
    "results": [
      {
        "address": 4301041664,
        "layout": "continuous",
        "memory_type": "<256x1xf32>",
        "name": "/lr_layer/embedding_layer/uid/Gather_output_0_Gather",
        "reshape": "",
        "slice": "[...]",
        "type": "tensor<256x1xf32, 4301041664 : i64>"
      }
    ]
  },
  {
    "file-line": 28,
    "subnet_id": 0,
    "opcode": "tpu.Unsqueeze",
    "tiu_dma_id(before)": [
      7,
      17
    ],
    "tiu_dma_id(after)": [
      7,
      18
    ],
    "operands": [
      {
        "address": 4301041664,
        "layout": "continuous",
        "memory_type": "<256x1xf32>",
        "name": "/lr_layer/embedding_layer/uid/Gather_output_0_Gather",
        "reshape": "",
        "slice": "[...]",
        "type": "tensor<256x1xf32, 4301041664 : i64>"
      }
    ],
    "results": [
      {
        "address": 4301312000,
        "layout": "continuous",
        "memory_type": "<1x256x1xf32>",
        "name": "/lr_layer/Unsqueeze_output_0_Unsqueeze",
        "reshape": "",
        "slice": "[...]",
        "type": "tensor<1x256x1xf32, 4301312000 : i64>"
      }
    ]
  },
  {
    "file-line": 30,
    "subnet_id": 0,
    "opcode": "tpu.Gather",
    "tiu_dma_id(before)": [
      7,
      18
    ],
    "tiu_dma_id(after)": [
      9,
      20
    ],
    "operands": [
      {
        "address": 4294991872,
        "layout": "continuous",
        "memory_type": "<3027x1xf32>",
        "name": "lr_layer.embedding_layer.embedding_layer.vid.weight",
        "reshape": "",
        "slice": "[...]",
        "type": "tensor<3027x1xf32, 4294991872 : i64>"
      },
      {
        "address": 4301111296,
        "layout": "continuous",
        "memory_type": "<256xsi32>",
        "name": "/embedding_layer/Gather_1_output_0_Gather_si32",
        "reshape": "",
        "slice": "[...]",
        "type": "tensor<256xi32, 4301111296 : i64>"
      },
      {}
    ],
    "results": [
      {
        "address": 4301041664,
        "layout": "continuous",
        "memory_type": "<256x1xf32>",
        "name": "/lr_layer/embedding_layer/vid/Gather_output_0_Gather",
        "reshape": "",
        "slice": "[...]",
        "type": "tensor<256x1xf32, 4301041664 : i64>"
      }
    ]
  },
  {
    "file-line": 31,
    "subnet_id": 0,
    "opcode": "tpu.Unsqueeze",
    "tiu_dma_id(before)": [
      9,
      20
    ],
    "tiu_dma_id(after)": [
      9,
      21
    ],
    "operands": [
      {
        "address": 4301041664,
        "layout": "continuous",
        "memory_type": "<256x1xf32>",
        "name": "/lr_layer/embedding_layer/vid/Gather_output_0_Gather",
        "reshape": "",
        "slice": "[...]",
        "type": "tensor<256x1xf32, 4301041664 : i64>"
      }
    ],
    "results": [
      {
        "address": 4301313024,
        "layout": "continuous",
        "memory_type": "<1x256x1xf32>",
        "name": "/lr_layer/Unsqueeze_1_output_0_Unsqueeze",
        "reshape": "",
        "slice": "[...]",
        "type": "tensor<1x256x1xf32, 4301313024 : i64>"
      }
    ]
  },
  {
    "file-line": 33,
    "subnet_id": 0,
    "opcode": "tpu.Gather",
    "tiu_dma_id(before)": [
      9,
      21
    ],
    "tiu_dma_id(after)": [
      11,
      23
    ],
    "operands": [
      {
        "address": 4295004160,
        "layout": "continuous",
        "memory_type": "<3x1xf32>",
        "name": "lr_layer.embedding_layer.embedding_layer.sex.weight",
        "reshape": "",
        "slice": "[...]",
        "type": "tensor<3x1xf32, 4295004160 : i64>"
      },
      {
        "address": 4301176832,
        "layout": "continuous",
        "memory_type": "<256xsi32>",
        "name": "/embedding_layer/Gather_2_output_0_Gather_si32",
        "reshape": "",
        "slice": "[...]",
        "type": "tensor<256xi32, 4301176832 : i64>"
      },
      {}
    ],
    "results": [
      {
        "address": 4301041664,
        "layout": "continuous",
        "memory_type": "<256x1xf32>",
        "name": "/lr_layer/embedding_layer/sex/Gather_output_0_Gather",
        "reshape": "",
        "slice": "[...]",
        "type": "tensor<256x1xf32, 4301041664 : i64>"
      }
    ]
  },
  {
    "file-line": 34,
    "subnet_id": 0,
    "opcode": "tpu.Unsqueeze",
    "tiu_dma_id(before)": [
      11,
      23
    ],
    "tiu_dma_id(after)": [
      11,
      24
    ],
    "operands": [
      {
        "address": 4301041664,
        "layout": "continuous",
        "memory_type": "<256x1xf32>",
        "name": "/lr_layer/embedding_layer/sex/Gather_output_0_Gather",
        "reshape": "",
        "slice": "[...]",
        "type": "tensor<256x1xf32, 4301041664 : i64>"
      }
    ],
    "results": [
      {
        "address": 4301314048,
        "layout": "continuous",
        "memory_type": "<1x256x1xf32>",
        "name": "/lr_layer/Unsqueeze_2_output_0_Unsqueeze",
        "reshape": "",
        "slice": "[...]",
        "type": "tensor<1x256x1xf32, 4301314048 : i64>"
      }
    ]
  },
  {
    "file-line": 36,
    "subnet_id": 0,
    "opcode": "tpu.Gather",
    "tiu_dma_id(before)": [
      11,
      24
    ],
    "tiu_dma_id(after)": [
      13,
      26
    ],
    "operands": [
      {
        "address": 4295008256,
        "layout": "continuous",
        "memory_type": "<8x1xf32>",
        "name": "lr_layer.embedding_layer.embedding_layer.age.weight",
        "reshape": "",
        "slice": "[...]",
        "type": "tensor<8x1xf32, 4295008256 : i64>"
      },
      {
        "address": 4301242368,
        "layout": "continuous",
        "memory_type": "<256xsi32>",
        "name": "/embedding_layer/Gather_3_output_0_Gather_si32",
        "reshape": "",
        "slice": "[...]",
        "type": "tensor<256xi32, 4301242368 : i64>"
      },
      {}
    ],
    "results": [
      {
        "address": 4301041664,
        "layout": "continuous",
        "memory_type": "<256x1xf32>",
        "name": "/lr_layer/embedding_layer/age/Gather_output_0_Gather",
        "reshape": "",
        "slice": "[...]",
        "type": "tensor<256x1xf32, 4301041664 : i64>"
      }
    ]
  },
  {
    "file-line": 37,
    "subnet_id": 0,
    "opcode": "tpu.Unsqueeze",
    "tiu_dma_id(before)": [
      13,
      26
    ],
    "tiu_dma_id(after)": [
      13,
      27
    ],
    "operands": [
      {
        "address": 4301041664,
        "layout": "continuous",
        "memory_type": "<256x1xf32>",
        "name": "/lr_layer/embedding_layer/age/Gather_output_0_Gather",
        "reshape": "",
        "slice": "[...]",
        "type": "tensor<256x1xf32, 4301041664 : i64>"
      }
    ],
    "results": [
      {
        "address": 4301315072,
        "layout": "continuous",
        "memory_type": "<1x256x1xf32>",
        "name": "/lr_layer/Unsqueeze_3_output_0_Unsqueeze",
        "reshape": "",
        "slice": "[...]",
        "type": "tensor<1x256x1xf32, 4301315072 : i64>"
      }
    ]
  },
  {
    "file-line": 39,
    "subnet_id": 0,
    "opcode": "tpu.Gather",
    "tiu_dma_id(before)": [
      13,
      27
    ],
    "tiu_dma_id(after)": [
      15,
      29
    ],
    "operands": [
      {
        "address": 4295012352,
        "layout": "continuous",
        "memory_type": "<22x1xf32>",
        "name": "lr_layer.embedding_layer.embedding_layer.job.weight",
        "reshape": "",
        "slice": "[...]",
        "type": "tensor<22x1xf32, 4295012352 : i64>"
      },
      {
        "address": 4301307904,
        "layout": "continuous",
        "memory_type": "<256xsi32>",
        "name": "/embedding_layer/Gather_4_output_0_Gather_si32",
        "reshape": "",
        "slice": "[...]",
        "type": "tensor<256xi32, 4301307904 : i64>"
      },
      {}
    ],
    "results": [
      {
        "address": 4301041664,
        "layout": "continuous",
        "memory_type": "<256x1xf32>",
        "name": "/lr_layer/embedding_layer/job/Gather_output_0_Gather",
        "reshape": "",
        "slice": "[...]",
        "type": "tensor<256x1xf32, 4301041664 : i64>"
      }
    ]
  },
  {
    "file-line": 40,
    "subnet_id": 0,
    "opcode": "tpu.Unsqueeze",
    "tiu_dma_id(before)": [
      15,
      29
    ],
    "tiu_dma_id(after)": [
      15,
      30
    ],
    "operands": [
      {
        "address": 4301041664,
        "layout": "continuous",
        "memory_type": "<256x1xf32>",
        "name": "/lr_layer/embedding_layer/job/Gather_output_0_Gather",
        "reshape": "",
        "slice": "[...]",
        "type": "tensor<256x1xf32, 4301041664 : i64>"
      }
    ],
    "results": [
      {
        "address": 4301316096,
        "layout": "continuous",
        "memory_type": "<1x256x1xf32>",
        "name": "/lr_layer/Unsqueeze_4_output_0_Unsqueeze",
        "reshape": "",
        "slice": "[...]",
        "type": "tensor<1x256x1xf32, 4301316096 : i64>"
      }
    ]
  },
  {
    "file-line": 41,
    "subnet_id": 0,
    "opcode": "tpu.Concat",
    "tiu_dma_id(before)": [
      15,
      30
    ],
    "tiu_dma_id(after)": [
      15,
      30
    ],
    "operands": [
      {
        "address": 4301312000,
        "layout": "continuous",
        "memory_type": "<1x256x1xf32>",
        "name": "/lr_layer/Unsqueeze_output_0_Unsqueeze",
        "reshape": "",
        "slice": "[...]",
        "type": "tensor<1x256x1xf32, 4301312000 : i64>"
      },
      {
        "address": 4301313024,
        "layout": "continuous",
        "memory_type": "<1x256x1xf32>",
        "name": "/lr_layer/Unsqueeze_1_output_0_Unsqueeze",
        "reshape": "",
        "slice": "[...]",
        "type": "tensor<1x256x1xf32, 4301313024 : i64>"
      },
      {
        "address": 4301314048,
        "layout": "continuous",
        "memory_type": "<1x256x1xf32>",
        "name": "/lr_layer/Unsqueeze_2_output_0_Unsqueeze",
        "reshape": "",
        "slice": "[...]",
        "type": "tensor<1x256x1xf32, 4301314048 : i64>"
      },
      {
        "address": 4301315072,
        "layout": "continuous",
        "memory_type": "<1x256x1xf32>",
        "name": "/lr_layer/Unsqueeze_3_output_0_Unsqueeze",
        "reshape": "",
        "slice": "[...]",
        "type": "tensor<1x256x1xf32, 4301315072 : i64>"
      },
      {
        "address": 4301316096,
        "layout": "continuous",
        "memory_type": "<1x256x1xf32>",
        "name": "/lr_layer/Unsqueeze_4_output_0_Unsqueeze",
        "reshape": "",
        "slice": "[...]",
        "type": "tensor<1x256x1xf32, 4301316096 : i64>"
      }
    ],
    "results": [
      {
        "address": 4301312000,
        "layout": "continuous",
        "memory_type": "<5x256x1xf32>",
        "name": "/lr_layer/Concat_output_0_Concat",
        "reshape": "",
        "slice": "[...]",
        "type": "tensor<5x256x1xf32, 4301312000 : i64>"
      }
    ]
  },
  {
    "file-line": 42,
    "subnet_id": 0,
    "opcode": "tpu.Reduce",
    "tiu_dma_id(before)": [
      15,
      30
    ],
    "tiu_dma_id(after)": [
      16,
      32
    ],
    "operands": [
      {
        "address": 4301312000,
        "layout": "continuous",
        "memory_type": "<5x256x1xf32>",
        "name": "/lr_layer/Concat_output_0_Concat",
        "reshape": "",
        "slice": "[...]",
        "type": "tensor<5x256x1xf32, 4301312000 : i64>"
      },
      {},
      {}
    ],
    "results": [
      {
        "address": 4301041664,
        "layout": "continuous",
        "memory_type": "<256x1xf32>",
        "name": "/lr_layer/ReduceSum_output_0_ReduceSum",
        "reshape": "",
        "slice": "[...]",
        "type": "tensor<256x1xf32, 4301041664 : i64>"
      }
    ]
  },
  {
    "file-line": 44,
    "subnet_id": 0,
    "opcode": "tpu.Gather",
    "tiu_dma_id(before)": [
      16,
      32
    ],
    "tiu_dma_id(after)": [
      18,
      34
    ],
    "operands": [
      {
        "address": 4295016448,
        "layout": "continuous",
        "memory_type": "<6032x64xf32>",
        "name": "embedding_layer.embedding_layer.uid.weight",
        "reshape": "",
        "slice": "[...]",
        "type": "tensor<6032x64xf32, 4295016448 : i64>"
      },
      {
        "address": 4301045760,
        "layout": "continuous",
        "memory_type": "<256xsi32>",
        "name": "/embedding_layer/Gather_output_0_Gather_si32",
        "reshape": "",
        "slice": "[...]",
        "type": "tensor<256xi32, 4301045760 : i64>"
      },
      {}
    ],
    "results": [
      {
        "address": 4301885440,
        "layout": "continuous",
        "memory_type": "<256x64xf32>",
        "name": "/embedding_layer/uid/Gather_output_0_Gather",
        "reshape": "",
        "slice": "[...]",
        "type": "tensor<256x64xf32, 4301885440 : i64>"
      }
    ]
  },
  {
    "file-line": 46,
    "subnet_id": 0,
    "opcode": "tpu.Gather",
    "tiu_dma_id(before)": [
      18,
      34
    ],
    "tiu_dma_id(after)": [
      20,
      36
    ],
    "operands": [
      {
        "address": 4296560640,
        "layout": "continuous",
        "memory_type": "<3027x64xf32>",
        "name": "embedding_layer.embedding_layer.vid.weight",
        "reshape": "",
        "slice": "[...]",
        "type": "tensor<3027x64xf32, 4296560640 : i64>"
      },
      {
        "address": 4301111296,
        "layout": "continuous",
        "memory_type": "<256xsi32>",
        "name": "/embedding_layer/Gather_1_output_0_Gather_si32",
        "reshape": "",
        "slice": "[...]",
        "type": "tensor<256xi32, 4301111296 : i64>"
      },
      {}
    ],
    "results": [
      {
        "address": 4301045760,
        "layout": "continuous",
        "memory_type": "<256x64xf32>",
        "name": "/embedding_layer/vid/Gather_output_0_Gather",
        "reshape": "",
        "slice": "[...]",
        "type": "tensor<256x64xf32, 4301045760 : i64>"
      }
    ]
  },
  {
    "file-line": 48,
    "subnet_id": 0,
    "opcode": "tpu.Gather",
    "tiu_dma_id(before)": [
      20,
      36
    ],
    "tiu_dma_id(after)": [
      22,
      38
    ],
    "operands": [
      {
        "address": 4297338880,
        "layout": "continuous",
        "memory_type": "<3x64xf32>",
        "name": "embedding_layer.embedding_layer.sex.weight",
        "reshape": "",
        "slice": "[...]",
        "type": "tensor<3x64xf32, 4297338880 : i64>"
      },
      {
        "address": 4301176832,
        "layout": "continuous",
        "memory_type": "<256xsi32>",
        "name": "/embedding_layer/Gather_2_output_0_Gather_si32",
        "reshape": "",
        "slice": "[...]",
        "type": "tensor<256xi32, 4301176832 : i64>"
      },
      {}
    ],
    "results": [
      {
        "address": 4301111296,
        "layout": "continuous",
        "memory_type": "<256x64xf32>",
        "name": "/embedding_layer/sex/Gather_output_0_Gather",
        "reshape": "",
        "slice": "[...]",
        "type": "tensor<256x64xf32, 4301111296 : i64>"
      }
    ]
  },
  {
    "file-line": 50,
    "subnet_id": 0,
    "opcode": "tpu.Gather",
    "tiu_dma_id(before)": [
      22,
      38
    ],
    "tiu_dma_id(after)": [
      24,
      40
    ],
    "operands": [
      {
        "address": 4297342976,
        "layout": "continuous",
        "memory_type": "<8x64xf32>",
        "name": "embedding_layer.embedding_layer.age.weight",
        "reshape": "",
        "slice": "[...]",
        "type": "tensor<8x64xf32, 4297342976 : i64>"
      },
      {
        "address": 4301242368,
        "layout": "continuous",
        "memory_type": "<256xsi32>",
        "name": "/embedding_layer/Gather_3_output_0_Gather_si32",
        "reshape": "",
        "slice": "[...]",
        "type": "tensor<256xi32, 4301242368 : i64>"
      },
      {}
    ],
    "results": [
      {
        "address": 4301176832,
        "layout": "continuous",
        "memory_type": "<256x64xf32>",
        "name": "/embedding_layer/age/Gather_output_0_Gather",
        "reshape": "",
        "slice": "[...]",
        "type": "tensor<256x64xf32, 4301176832 : i64>"
      }
    ]
  },
  {
    "file-line": 52,
    "subnet_id": 0,
    "opcode": "tpu.Gather",
    "tiu_dma_id(before)": [
      24,
      40
    ],
    "tiu_dma_id(after)": [
      26,
      42
    ],
    "operands": [
      {
        "address": 4297347072,
        "layout": "continuous",
        "memory_type": "<22x64xf32>",
        "name": "embedding_layer.embedding_layer.job.weight",
        "reshape": "",
        "slice": "[...]",
        "type": "tensor<22x64xf32, 4297347072 : i64>"
      },
      {
        "address": 4301307904,
        "layout": "continuous",
        "memory_type": "<256xsi32>",
        "name": "/embedding_layer/Gather_4_output_0_Gather_si32",
        "reshape": "",
        "slice": "[...]",
        "type": "tensor<256xi32, 4301307904 : i64>"
      },
      {}
    ],
    "results": [
      {
        "address": 4301242368,
        "layout": "continuous",
        "memory_type": "<256x64xf32>",
        "name": "/embedding_layer/job/Gather_output_0_Gather",
        "reshape": "",
        "slice": "[...]",
        "type": "tensor<256x64xf32, 4301242368 : i64>"
      }
    ]
  },
  {
    "file-line": 53,
    "subnet_id": 0,
    "opcode": "tpu.Concat",
    "tiu_dma_id(before)": [
      26,
      42
    ],
    "tiu_dma_id(after)": [
      26,
      47
    ],
    "operands": [
      {
        "address": 4301885440,
        "layout": "continuous",
        "memory_type": "<256x64xf32>",
        "name": "/embedding_layer/uid/Gather_output_0_Gather",
        "reshape": "",
        "slice": "[...]",
        "type": "tensor<256x64xf32, 4301885440 : i64>"
      },
      {
        "address": 4301045760,
        "layout": "continuous",
        "memory_type": "<256x64xf32>",
        "name": "/embedding_layer/vid/Gather_output_0_Gather",
        "reshape": "",
        "slice": "[...]",
        "type": "tensor<256x64xf32, 4301045760 : i64>"
      },
      {
        "address": 4301111296,
        "layout": "continuous",
        "memory_type": "<256x64xf32>",
        "name": "/embedding_layer/sex/Gather_output_0_Gather",
        "reshape": "",
        "slice": "[...]",
        "type": "tensor<256x64xf32, 4301111296 : i64>"
      },
      {
        "address": 4301176832,
        "layout": "continuous",
        "memory_type": "<256x64xf32>",
        "name": "/embedding_layer/age/Gather_output_0_Gather",
        "reshape": "",
        "slice": "[...]",
        "type": "tensor<256x64xf32, 4301176832 : i64>"
      },
      {
        "address": 4301242368,
        "layout": "continuous",
        "memory_type": "<256x64xf32>",
        "name": "/embedding_layer/job/Gather_output_0_Gather",
        "reshape": "",
        "slice": "[...]",
        "type": "tensor<256x64xf32, 4301242368 : i64>"
      }
    ],
    "results": [
      {
        "address": 4301557760,
        "layout": "continuous",
        "memory_type": "<256x320xf32>",
        "name": "/Concat_output_0_Concat",
        "reshape": "",
        "slice": "[...]",
        "type": "tensor<256x320xf32, 4301557760 : i64>"
      }
    ]
  },
  {
    "file-line": 56,
    "subnet_id": 0,
    "opcode": "tpu.MatMul",
    "tiu_dma_id(before)": [
      26,
      47
    ],
    "tiu_dma_id(after)": [
      32,
      59
    ],
    "operands": [
      {
        "address": 4301557760,
        "layout": "continuous",
        "memory_type": "<256x320xf32>",
        "name": "/Concat_output_0_Concat",
        "reshape": "",
        "slice": "[...]",
        "type": "tensor<256x320xf32, 4301557760 : i64>"
      },
      {
        "address": 4297355264,
        "layout": "continuous",
        "memory_type": "<320x500xf32>",
        "name": "dnn.dnn.0.weight_fix",
        "reshape": "",
        "slice": "[...]",
        "type": "tensor<320x500xf32, 4297355264 : i64>"
      },
      {
        "address": 4297998336,
        "layout": "continuous",
        "memory_type": "<1x1x1x500xf32>",
        "name": "dnn.dnn.0.bias",
        "reshape": "",
        "slice": "[...]",
        "type": "tensor<1x1x1x500xf32, 4297998336 : i64>"
      }
    ],
    "results": [
      {
        "address": 4301045760,
        "layout": "continuous",
        "memory_type": "<256x500xf32>",
        "name": "/dnn/dnn/dnn.1/Relu_output_0_Relu",
        "reshape": "",
        "slice": "[...]",
        "type": "tensor<256x500xf32, 4301045760 : i64>"
      }
    ]
  },
  {
    "file-line": 59,
    "subnet_id": 0,
    "opcode": "tpu.MatMul",
    "tiu_dma_id(before)": [
      32,
      59
    ],
    "tiu_dma_id(after)": [
      38,
      71
    ],
    "operands": [
      {
        "address": 4301045760,
        "layout": "continuous",
        "memory_type": "<256x500xf32>",
        "name": "/dnn/dnn/dnn.1/Relu_output_0_Relu",
        "reshape": "",
        "slice": "[...]",
        "type": "tensor<256x500xf32, 4301045760 : i64>"
      },
      {
        "address": 4298002432,
        "layout": "continuous",
        "memory_type": "<500x500xf32>",
        "name": "dnn.dnn.2.weight_fix",
        "reshape": "",
        "slice": "[...]",
        "type": "tensor<500x500xf32, 4298002432 : i64>"
      },
      {
        "address": 4299005952,
        "layout": "continuous",
        "memory_type": "<1x1x1x500xf32>",
        "name": "dnn.dnn.2.bias",
        "reshape": "",
        "slice": "[...]",
        "type": "tensor<1x1x1x500xf32, 4299005952 : i64>"
      }
    ],
    "results": [
      {
        "address": 4301557760,
        "layout": "continuous",
        "memory_type": "<256x500xf32>",
        "name": "/dnn/dnn/dnn.3/Relu_output_0_Relu",
        "reshape": "",
        "slice": "[...]",
        "type": "tensor<256x500xf32, 4301557760 : i64>"
      }
    ]
  },
  {
    "file-line": 62,
    "subnet_id": 0,
    "opcode": "tpu.MatMul",
    "tiu_dma_id(before)": [
      38,
      71
    ],
    "tiu_dma_id(after)": [
      44,
      83
    ],
    "operands": [
      {
        "address": 4301557760,
        "layout": "continuous",
        "memory_type": "<256x500xf32>",
        "name": "/dnn/dnn/dnn.3/Relu_output_0_Relu",
        "reshape": "",
        "slice": "[...]",
        "type": "tensor<256x500xf32, 4301557760 : i64>"
      },
      {
        "address": 4299010048,
        "layout": "continuous",
        "memory_type": "<500x500xf32>",
        "name": "dnn.dnn.4.weight_fix",
        "reshape": "",
        "slice": "[...]",
        "type": "tensor<500x500xf32, 4299010048 : i64>"
      },
      {
        "address": 4300013568,
        "layout": "continuous",
        "memory_type": "<1x1x1x500xf32>",
        "name": "dnn.dnn.4.bias",
        "reshape": "",
        "slice": "[...]",
        "type": "tensor<1x1x1x500xf32, 4300013568 : i64>"
      }
    ],
    "results": [
      {
        "address": 4301045760,
        "layout": "continuous",
        "memory_type": "<256x500xf32>",
        "name": "/dnn/dnn/dnn.5/Relu_output_0_Relu",
        "reshape": "",
        "slice": "[...]",
        "type": "tensor<256x500xf32, 4301045760 : i64>"
      }
    ]
  },
  {
    "file-line": 65,
    "subnet_id": 0,
    "opcode": "tpu.MatMul",
    "tiu_dma_id(before)": [
      44,
      83
    ],
    "tiu_dma_id(after)": [
      50,
      95
    ],
    "operands": [
      {
        "address": 4301045760,
        "layout": "continuous",
        "memory_type": "<256x500xf32>",
        "name": "/dnn/dnn/dnn.5/Relu_output_0_Relu",
        "reshape": "",
        "slice": "[...]",
        "type": "tensor<256x500xf32, 4301045760 : i64>"
      },
      {
        "address": 4300017664,
        "layout": "continuous",
        "memory_type": "<500x500xf32>",
        "name": "dnn.dnn.6.weight_fix",
        "reshape": "",
        "slice": "[...]",
        "type": "tensor<500x500xf32, 4300017664 : i64>"
      },
      {
        "address": 4301021184,
        "layout": "continuous",
        "memory_type": "<1x1x1x500xf32>",
        "name": "dnn.dnn.6.bias",
        "reshape": "",
        "slice": "[...]",
        "type": "tensor<1x1x1x500xf32, 4301021184 : i64>"
      }
    ],
    "results": [
      {
        "address": 4301557760,
        "layout": "continuous",
        "memory_type": "<256x500xf32>",
        "name": "/dnn/dnn/dnn.7/Relu_output_0_Relu",
        "reshape": "",
        "slice": "[...]",
        "type": "tensor<256x500xf32, 4301557760 : i64>"
      }
    ]
  },
  {
    "file-line": 68,
    "subnet_id": 0,
    "opcode": "tpu.MatMul",
    "tiu_dma_id(before)": [
      50,
      95
    ],
    "tiu_dma_id(after)": [
      54,
      107
    ],
    "operands": [
      {
        "address": 4301557760,
        "layout": "continuous",
        "memory_type": "<256x500xf32>",
        "name": "/dnn/dnn/dnn.7/Relu_output_0_Relu",
        "reshape": "",
        "slice": "[...]",
        "type": "tensor<256x500xf32, 4301557760 : i64>"
      },
      {
        "address": 4301025280,
        "layout": "continuous",
        "memory_type": "<500x1xf32>",
        "name": "dnn.dnn.8.weight_fix",
        "reshape": "",
        "slice": "[...]",
        "type": "tensor<500x1xf32, 4301025280 : i64>"
      },
      {
        "address": 4301029376,
        "layout": "continuous",
        "memory_type": "<1x1x1x1xf32>",
        "name": "dnn.dnn.8.bias",
        "reshape": "",
        "slice": "[...]",
        "type": "tensor<1x1x1x1xf32, 4301029376 : i64>"
      }
    ],
    "results": [
      {
        "address": 4301045760,
        "layout": "continuous",
        "memory_type": "<256x1xf32>",
        "name": "/dnn/dnn/dnn.8/Gemm_output_0_Gemm",
        "reshape": "",
        "slice": "[...]",
        "type": "tensor<256x1xf32, 4301045760 : i64>"
      }
    ]
  },
  {
    "file-line": 69,
    "subnet_id": 0,
    "opcode": "tpu.Mul",
    "tiu_dma_id(before)": [
      54,
      107
    ],
    "tiu_dma_id(after)": [
      55,
      110
    ],
    "operands": [
      {
        "address": 4301041664,
        "layout": "continuous",
        "memory_type": "<256x1xf32>",
        "name": "/lr_layer/ReduceSum_output_0_ReduceSum",
        "reshape": "",
        "slice": "[...]",
        "type": "tensor<256x1xf32, 4301041664 : i64>"
      },
      {
        "address": 4301045760,
        "layout": "continuous",
        "memory_type": "<256x1xf32>",
        "name": "/dnn/dnn/dnn.8/Gemm_output_0_Gemm",
        "reshape": "",
        "slice": "[...]",
        "type": "tensor<256x1xf32, 4301045760 : i64>"
      }
    ],
    "results": [
      {
        "address": 4301049856,
        "layout": "continuous",
        "memory_type": "<256x1xf32>",
        "name": "/Mul_output_0_Mul",
        "reshape": "",
        "slice": "[...]",
        "type": "tensor<256x1xf32, 4301049856 : i64>"
      }
    ]
  },
  {
    "file-line": 70,
    "subnet_id": 0,
    "opcode": "tpu.Active",
    "tiu_dma_id(before)": [
      55,
      110
    ],
    "tiu_dma_id(after)": [
      69,
      112
    ],
    "operands": [
      {
        "address": 4301049856,
        "layout": "continuous",
        "memory_type": "<256x1xf32>",
        "name": "/Mul_output_0_Mul",
        "reshape": "",
        "slice": "[...]",
        "type": "tensor<256x1xf32, 4301049856 : i64>"
      }
    ],
    "results": [
      {
        "address": 4301041664,
        "layout": "continuous",
        "memory_type": "<256x1xf32>",
        "name": "output_Sigmoid",
        "reshape": "",
        "slice": "[...]",
        "type": "tensor<256x1xf32, 4301041664 : i64>"
      }
    ]
  }
]